old_work/Classification_AB/NeuralNetwork/best_Model_3.pth (torch, 9086 bytes, 9 tensors)

net.0.weight f4 [16, 6]
00000000: a610 613e baf0 22c0 e342 9e3f b00e ebbe
00000010: 85c4 bcbe 62c1 413e 7a65 1b40 0f0c 3d3f
00000020: 8d80 e93e d508 603f 65f6 94be f594 9a3f
00000030: db52 2dbe efa4 af3f 22f2 35c0 24b9 d23c
00000040: 108e f0bd 40cf 833f 4e2b b63f 35ad 2dbe
00000050: 4d6c 443f 1452 89be 5c9e 90c0 96d0 953c
00000060: 474a 05bd 73e4 1d3e a857 e0bd 3ca7 da3e
00000070: 1241 19be acaf 503e cadc d83b c976 0fbf
00000080: 6d34 40bf d634 8d3d 962f 6b3f 7ff1 3a3f
00000090: e598 b93b fec6 c9bb aaaf 863b fe9c aa3e
000000a0: e670 3d3e aefe 58bd a80a 2c40 626c 863e
000000b0: f87f 803e 8ac1 783f bb9e d5be c8e3 4d3f
000000c0: fb49 683f 1c2f c4bf ce25 923e 97ca 02bf
000000d0: 35ce 6140 66bf a53e fd59 fa3d 3ac2 0a3f
000000e0: 2fe8 d63e 57de 0540 bb3b 173f 54a4 f0be
000000f0: 903a eb3d 30ef 823e dc2a b6be 84fa 2c3e
00000100: 132a 493b 0098 19be fc65 823e e0d8 793d
00000110: 61f9 95be 32a4 1e3e 0c81 1f3e d86c adbe
00000120: 76df 043d 8026 bb3d 8431 c9be cc27 1d3d
00000130: 4e24 12be cc3e 4d3e 17b6 7ebd 89ea a53d
00000140: d584 d6be 8a00 003f 035d 1c3e 95ba 90bd
00000150: b730 e83f 5944 bf3f 258f 193f 6981 3d3d
00000160: 88ba 2340 ba95 00bf 4488 a23e 06c2 c63f
00000170: d601 bf3e 0c3e ba3c 9cdc 3c3c ec42 38c0
0.21979007 -2.5459428 1.2364162 -0.45909643 -0.36868683 0.18921426 2.4280686 0.73846525
0.4560589 0.87513477 -0.29094234 1.2076708 -0.16926138 1.3722209 -2.8429036 0.025723048
-0.11745846 1.0297623 1.4231966 -0.16960604 0.76727754 -0.26820433 -4.519331 0.018287938
-0.03254154 0.15419178 -0.10954219 0.42705715 -0.14966229 0.20379514 0.006618117 -0.56040627
-0.75079995 0.06894843 0.91869485 0.73024744 0.0056639784 -0.006157755 0.0041102963 0.333229
0.18500099 -0.052977256 2.6881504 0.26254565 0.25097632 0.9717032 -0.41722664 0.8042569
0.90737885 -1.5326877 0.28544468 -0.5109038 3.5282109 0.32372588 0.12224195 0.54202616
0.41974017 2.0916955 0.59075516 -0.47000372 0.11485779 0.2557311 -0.35579574 0.16892439
0.0030695244 -0.1499939 0.25468433 0.060997844 -0.29291824 0.15492323 0.15576571 -0.33872104
0.03243967 0.09138203 -0.3929559 0.03836803 -0.14271662 0.20043486 -0.062185373 0.08101375
-0.41898218 0.5000082 0.15269856 -0.07066838 1.8139867 1.4942733 0.59984046 0.046265993
2.55826 -0.50228465 0.31744587 1.5527961 0.37306088 0.022734664 0.011527207 -2.8790846

net.0.bias f4 [16]
00000000: 1427 27bf ec49 26c0 faaf 5a3f 43b3 393f
00000010: c4af 31bd d68a e5be ae4b b13c 5aa6 0cc0
00000020: 69b9 9c3e 481f 26c0 403e 023d c077 c93e
00000030: 4027 ddbe b68d f7bd df9f f43c f56c 38be
-0.65294003 -2.5982618 0.8542477 0.72539157 -0.043380514 -0.44832486 0.021642532 -2.1976533
0.30610207 -2.5956593 0.031797647 0.39349174 -0.43194008 -0.12087576 0.029861389 -0.18010314

net.2.weight f4 [32, 16]
00000000: 3914 59be d484 7f3c f2d4 cfbe 25bd f0be
00000010: b36b 653e ed53 193e 8cfc 8fbc 3804 e23e
00000020: 7305 623e 861f 573e d8fe 03be 40e4 2ebd
00000030: 1d2a e4bd 3758 8d3e 7671 28bf c161 99bf
00000040: c785 17bd f1d9 aebe 4c72 313f e051 893f
00000050: d6c0 11be 800f 93be 66ad 883c e8c6 f1bf
00000060: 69a6 4ac0 a440 eb3d c099 3bbd 0cfb 513e
00000070: 80fd cdbd 702e 033e b1b7 86c0 8bb3 093e
00000080: c3ea 1a3e 952a b4bf 992a f6be aac4 093f
00000090: 5365 debd 6817 5abf c6f0 003e 5b49 ddbf
000000a0: 3bd7 81bf 3e0a 8dbf 2c5d d73d 982a 73be
000000b0: 8d6b 013e cc62 3f3e 6da6 863f 1ed5 e13e
000000c0: 9860 f0be 7b5f acbf bf68 89be 207f b9be
000000d0: b548 73be 1815 153e c46e 05be 4cdb b8be
000000e0: db5b 10bf ed47 a8bf b8de 4dbe 6c88 f6bd
000000f0: f800 e0bd 6206 cc3c cde9 25be 2c31 053f
00000100: 08f3 31bf 8cd8 a1be 3036 19bf bc92 2fbc
00000110: e112 a53c 0f36 e93d f46e 27be acff 073d
00000120: 1497 e2be f6e4 7fbf 668d 33be 505e 603e
00000130: ed73 9c3d 2ff1 43be a351 203f 0a4c e73e
00000140: 951d 59bb 0c2e 333e 284a 3ebe 441b dbbd
00000150: 88ba 8dbd 8af6 06be 20b9 623c 00fa 37bd
00000160: fab2 92bd c047 61bd 1c62 9f3d a00a 203e
00000170: 6548 2cbc c0b0 403c 04fb f5bc 12b8 fabd
00000180: c8de 9abe 545a 153e 4e57 a9be 6fe7 f7bd
00000190: d4b2 6dbe a558 cebe 25aa a8bc 3090 1a3e
000001a0: 2d62 95be 3165 243e 0829 823d ce82 01be
000001b0: 58c3 323e 2840 f23d 9692 09be a48f e6bd
000001c0: 588d 69bd d626 c3be 5dd2 96be b0f0 15be
000001d0: 506d 4a3e f458 a4bd 0b28 96bd 0b03 4dbf
000001e0: c754 4fbe 39be 7abe 0a33 25be f004 9a3c
000001f0: 2918 b3bd 4d6a 4bbe 7bbd 89bc 8ffb 6ebe
00000200: a467 b2be 1494 a1bf 5a46 f8be 56ae 62bf
00000210: a7ca 663d 328d e03c 80c5 77be ed7f 9abf
00000220: 5404 31be 5cc2 c1bd a668 2f3e 04a9 d4bd
00000230: 1a8c f6bd 0088 c53b a266 f5bd e50d b63e
00000240: 4b8e 86be 4cf7 133c d65a 82bf 2339 2cbf
00000250: 32d2 a03d 27cc 2bbe e279 61bd 7424 a1bd
00000260: 5c19 11be 1789 943e d82b b93d 20f3 47bc
00000270: fa91 dbbd 92c6 463e df1d 15be 40cd debe
00000280: c1fd 5ebe e0e5 84bd f9af c3be 3511 aabe
00000290: 1cc3 b3bd 68b1 a9be b0b8 fdbc 66c8 003e
000002a0: 35e0 81be 0429 b33d 8053 ba3b 2053 dbbd
000002b0: 40c0 9d3b b6a3 413e 391d 50be acdb 52be
000002c0: 9abf 30bf a73b a4be ebdb cabe cdb9 30bf
000002d0: 20b4 6dbe 9011 04be 9a02 203e 92e9 a7be
000002e0: 60cd dd3d 9034 ca3f 30d9 0f3d 7ce2 c43d
000002f0: e009 35bd 00ae 61be b48b 13bf e489 c63e
00000300: 4601 2a3f 5b64 bbbf 90ea 07bf 922a 1bbd
00000310: 9b1f 4ebe d16e f63d 6ca8 1ebe 5fff b5bf
00000320: d01f 293f 609b e7bd 34d2 2c3e c8b9 103e
00000330: 266e 91bd a087 77be bbb4 5cbf afc6 563d
00000340: 7ccb a8bf c7f9 82bf a44f 55bf c501 083f
00000350: 5f47 27be 0cc8 82bd bd5a 3bbe 4a21 c1bf
00000360: 9dc3 98be b7c4 84bf 5461 d33d 46b6 6c3e
00000370: b155 3abd fabb 1b3e 0480 883f f82b a5be
00000380: 6c83 23be e741 b0bf ce16 afbe 40a3 b8be
00000390: 5734 093e f566 fe3d 8214 88be 3b52 a5bf
000003a0: 8656 07bf 6cc6 45bf 307d 7f3e 18ea 7bbd
000003b0: 48b1 bb3d 2cd6 4dbe dfa7 cf3d 2bcb d93d
000003c0: c91d 00bf 2167 debe c08b 4b3d 6965 92bd
000003d0: d669 4c3e fb44 5c3e 2c7a baba fdf4 f0be
000003e0: 1827 18bd 2694 0abe ccd0 11be c818 19bd
000003f0: ecf8 693e 525d 06bd 6d51 d4bc 8a18 6abd
-0.2119912 0.015595634 -0.40592152 -0.47019306 0.22404365 0.14973421 -0.017576478 0.44143844
0.22072391 0.21008119 -0.12890184 -0.042698145 -0.11140845 0.27606365 -0.6579813 -1.1982957
-0.036992814 -0.3415065 0.6931503 1.0728111 -0.14233717 -0.28722763 0.016684245 -1.8888826
-3.1664069 0.114869386 -0.045800924 0.20505923 -0.10058117 0.12810683 -4.2099233 0.13447396
0.15128617 -1.4075495 -0.48079374 0.5381571 -0.1085917 -0.85191965 0.12591848 -1.7288011
-1.0143808 -1.1018751 0.10515818 -0.23746717 0.12638684 0.18690032 1.0519539 0.44107908
-0.46948695 -1.3466638 -0.26837727 -0.362298 -0.23758204 0.14558828 -0.13030535 -0.3610481
-0.5639016 -1.314695 -0.20104492 -0.12037739 -0.10937685 0.024905387 -0.16202469 0.52028155
-0.6951146 -0.31610525 -0.5984831 -0.010716137 0.020150604 0.11387264 -0.16350919 0.033202812
-0.44255888 -0.9995874 -0.17534408 0.21910977 0.076392986 -0.19134973 0.6262457 0.451752
-0.0033129205 0.17498034 -0.18582976 -0.1069856 -0.06920344 -0.13179985 0.013838083 -0.044916153
-0.07163043 -0.055000067 0.07782385 0.15629053 -0.010515307 0.0117608905 -0.03002692 -0.1224214
-0.30248094 0.14585239 -0.3307442 -0.12104689 -0.23212749 -0.40302005 -0.020588944 0.15094066
-0.29176465 0.16054226 0.06355482 -0.12647554 0.1745733 0.11828643 -0.13434824 -0.11257866
-0.05701956 -0.38115567 -0.2945737 -0.14642596 0.19768262 -0.08024779 -0.07331856 -0.8008277
-0.20247184 -0.24486627 -0.16132751 0.018801183 -0.087448426 -0.1986477 -0.016813984 -0.2333815
-0.34844697 -1.2623315 -0.48491174 -0.88547266 0.056345608 0.027411077 -0.24196434 -1.207029
-0.17286807 -0.09460899 0.17129764 -0.103838 -0.12038441 0.0060281754 -0.11982466 0.35557476
-0.26280436 0.009031128 -1.0183971 -0.67274684 0.078525916 -0.16777097 -0.055047877 -0.07868281
-0.1416983 0.2901084 0.09041566 -0.012203962 -0.10721202 0.19411686 -0.14562176 -0.43515968
-0.21776487 -0.06489158 -0.38220194 -0.33216253 -0.087774485 -0.33143163 -0.030971855 0.12576446
-0.2536637 0.087480575 0.0056862235 -0.10709214 0.0048141778 0.18910107 -0.20323648 -0.2059161
-0.6904236 -0.3207676 -0.3962091 -0.6903351 -0.23213243 -0.12897325 0.15625992 -0.32795388
0.10830188 1.5797291 0.035119236 0.09613511 -0.04419887 -0.22039032 -0.57635045 0.38777077
0.66408193 -1.4640001 -0.5309229 -0.037882395 -0.20129244 0.12032855 -0.15493935 -1.4218558
0.6606417 -0.11308932 0.16877061 0.1413337 -0.07101087 -0.2417283 -0.8621327 0.052435573
-1.3187099 -1.0232476 -0.83324647 0.531277 -0.1633582 -0.06385812 -0.18296333 -1.5088284
-0.2983674 -1.0372533 0.10321298 0.23116407 -0.045491878 0.15208426 1.0664067 -0.32260108
-0.15968102 -1.3770112 -0.34197086 -0.3606205 0.13398872 0.12421981 -0.26578146 -1.291572
-0.528664 -0.7725589 0.24950099 -0.061502546 0.09164673 -0.20101231 0.10139441 0.10634454
-0.5004545 -0.43438056 0.049693823 -0.07148249 0.19962248 0.21510689 -0.0014227084 -0.4706191
-0.037146658 -0.13533077 -0.14239806 -0.03737715 0.22848862 -0.03280384 -0.025917733 -0.05715231

net.2.bias f4 [32]
00000000: 0b41 8f3b 6b32 7f3e 56de bbbe 7662 a2be
00000010: 0075 34bf 30fe b3be a035 30be b474 2bbf
00000020: 7232 2cbf 8ba7 22bf 12a4 82be 4ddb 9dbe
00000030: db67 503e 29dd d8bf 933a 36bf bca0 b4be
00000040: 5863 31bf 1670 6c3e 02fb 09be 7316 71be
00000050: 2376 293f 1a14 c33c 511b 25bf 9c63 f93d
00000060: 26c5 8e3f 73c1 f4be 66f4 cebd f070 bebf
00000070: a9d7 0abf 924a 53bf d672 f53e 0b7d 8a3f
0.0043717674 0.24921577 -0.36693066 -0.31715745 -0.7049103 -0.35154867 -0.17207956 -0.6697495
-0.67264473 -0.635369 -0.255158 -0.30831376 0.20352118 -1.6942493 -0.7118313 -0.3527888
-0.6929221 0.23089632 -0.13474658 -0.2354372 0.6619589 0.023813296 -0.64494807 0.12177202
1.1153915 -0.4780384 -0.10105209 -1.4878216 -0.5423532 -0.8253566 0.47939175 1.081941

net.4.weight f4 [16, 32]
00000000: d8ca efbd 2c8f dfbe a45f d7bf 2085 b23e
00000010: 6b20 33be aefa d9bd 6dee 8bbd b5bd 383e
00000020: 99e8 ae3c bbda 493e 44e9 c0bd 78c0 373e
00000030: fcfa 843b c3a1 383e 276f 5c3e c5ff e8bd
00000040: 3956 6d3e e1b3 193f 6a0e b1bc a6ef e03e
00000050: e15f 5fbf b8e2 1bbe 6be7 c93e c30a 4ebe
00000060: 1a81 84bf 22e8 1a3e e299 c1bb b2aa e33d
00000070: 0661 87be 8c99 523e abff 1e3d e36f d9be
00000080: 9a65 f3bd 1593 20be 82e1 3abe 4676 3bbe
00000090: e1e0 f4bd 51c8 273e 5ba9 18be 85b6 9bbd
000000a0: b9ac 49be 4b2b 123c 139e 883d 5c61 9a3d
000000b0: 35d2 90be 2525 c9bd 3478 83be 057c 43be
000000c0: a354 dabc 0024 1fbe 5645 b83d 9da9 acbe
000000d0: ed59 59be 57ba f0be 596b 9cbd 3189 5dbe
000000e0: 9d2f 99be 8c4f 8b3c eac9 c93c 7f99 d7bd
000000f0: f29b 34bb 2671 74be 7530 63be 222c 32be
00000100: 904d 0a3e c60c 26c0 a08c 42bf 4992 f0bd
00000110: 586a 5fbe bc73 c6bb 2551 d63d 07cf 6a3e
00000120: a84f 853e 4e2c 783d 5d81 4b3e be11 9b3d
00000130: 5818 973e 2eec 92bf 807d ebbd 3721 55be
00000140: 4851 92be ef50 e03e 01a8 ea3d 912c 22c0
00000150: bced 143f b95c 973e bb51 99bf ad62 37c0
00000160: a22c 553e 7c35 c0bc 598d 05be 2cf0 3e3f
00000170: 7c11 d3bd 163a 0d3e 1253 943f 653b 823f
00000180: 7a45 573e 4c97 863f 5e0e 1b3f 6eeb 1e3e
00000190: 3d49 9ebe 4eef 77bb 1532 ce3d 3ce0 963d
000001a0: 6b16 c73d 8429 b2bd c86d ecbe 30f3 05be
000001b0: 1a49 763d d69a 303e 9413 b53d 3503 a03d
000001c0: 2955 bc3c 58d2 92be d3c2 7f3d c397 dd3f
000001d0: 26d7 4fbf e609 393d 825d f03f d04e 9a3f
000001e0: ba2e c03e cac1 283e 7cb4 2fbd 47b6 a33e
000001f0: e726 87be f26a 4d3e 48a3 f23e bdc9 d4bf
00000200: d3c0 813f be57 dc3e 12a6 9dbe a15e 1a3f
00000210: 4f24 02bf 4530 cebc ac22 45be 2467 1dbe
00000220: 7153 603f 23df 373c dca2 c3bd 150c 1740
00000230: f6bd ba3d 9649 753e b49b 483d 112a 20be
00000240: 3920 1ebe 5c4f 19be 5c3d 65bc 7061 b33f
00000250: 9690 3abe c343 32bf 8c64 bb3f 64e1 403e
00000260: db66 b4be 0acd db3c 0275 fdbd a985 38bd
00000270: c5db 84bc c229 4e3e 9f76 29bf 3f2a efbd
00000280: 4a22 24bf a4a2 8a3f ec77 36bf 4089 1e3e
00000290: 98fb 73bf 303c 5c3c de4c 0fbe ebfc 343e
000002a0: 4ac2 9e3d 978f bc3e 9cb8 ff3c 2b93 4c40
000002b0: fb8d dcbe 72e5 abbf 94c5 15bd ffa3 753f
000002c0: 92a2 bf3d 4f48 1e3e b455 1f3d d7a9 21bf
000002d0: 0639 40be 18ee 173f 1020 0a40 61da 8fbf
000002e0: d6b5 02bf 1ec4 27be 670d 84be cd0a d9be
000002f0: 57ba a5bd 2b4b c13e 4995 72bf ec73 b8be
00000300: 9f0a 133e 3c45 f93e c490 0e3f d3ec 9d3e
00000310: af8b 803e 2aec 0cbe 7efc 82bd 42d1 0ebd
00000320: d98e 403e 6aaf 653d 274a fd3d 140e 823d
00000330: 3a26 9abe cee1 be3d d49a 03bd 0b25 733e
00000340: 732d fa3d 651f b43c d489 783b 031a 403f
00000350: 1048 d1bf ba2a 9e3d d39b f93f 4ed3 323f
00000360: f502 b6bf 30f9 7dbd 28be d3bd 793f 9a3f
00000370: 9fdc e2bd 335f 95bb ef95 b73e 3b39 8cbf
00000380: 7c01 763e 9312 0640 2d94 70be 23b6 953e
00000390: 77c5 d3bd eed7 51be 3f94 18be 2062 523e
000003a0: 7f3b fbbd 376e 383d 0919 463e ccd2 933d
000003b0: f2d5 79bd 998d bcbe ef10 8a3b e3aa 1f3e
000003c0: 5935 773e 400b 173e 82df d5bd ec3c 2540
000003d0: da71 983e cf31 323d 568d 1640 32aa 1340
000003e0: a6a9 25bf ff98 b33d 6850 d23d c251 2fbe
000003f0: a301 ba3e 0a2e 0e3e d5ec c1be 8e64 84be
-0.11708611 -0.4366392 -1.6826062 0.3486719 -0.17492835 -0.106435165 -0.068325855 0.18041117
0.021351146 0.19712345 -0.09419492 0.17944515 0.00405824 0.18030457 0.21526776 -0.11376909
0.23177423 0.600401 -0.021613318 0.43932837 -0.87255675 -0.15223205 0.3943437 -0.20121293
-1.0351899 0.15127614 -0.005908237 0.11116542 -0.2644121 0.20566386 0.038818043 -0.42468175
-0.11884613 -0.15681107 -0.18250087 -0.18306836 -0.11956955 0.16385008 -0.14908354 -0.07603172
-0.19694795 0.008921455 0.06670775 0.07538101 -0.28285375 -0.09821538 -0.25677645 -0.19090278
-0.026651686 -0.15541077 0.089976 -0.33723155 -0.2122571 -0.47017166 -0.076376624 -0.21634366
-0.2991914 0.017005704 0.024632413 -0.10527324 -0.002755877 -0.23871288 -0.22186454 -0.17399648
0.1350615 -2.5945296 -0.75995827 -0.11746652 -0.2181791 -0.006056277 0.10464696 0.22930537
0.26037335 0.060589127 0.19873567 0.075717434 0.2951076 -1.1478326 -0.114985466 -0.20813452
-0.28577638 0.43811747 0.114578255 -2.53397 0.58175254 0.2956293 -1.1978067 -2.8653977
0.20817807 -0.023463003 -0.13042201 0.74585223 -0.10306069 0.1379169 1.1587851 1.0174376
0.21022597 1.0514922 0.605688 0.15519497 -0.3091525 -0.0037831846 0.10068146 0.07366988
0.09721073 -0.08699325 -0.46177506 -0.1308105 0.06012831 0.17246565 0.08841625 0.07813112
0.022989826 -0.28676105 0.06244166 1.7311939 -0.81187665 0.045175456 1.8778536 1.2055302
0.3753565 0.16480175 -0.042896733 0.31975004 -0.26396868 0.20060328 0.473902 -1.6624066
1.013697 0.43035692 -0.30790764 0.6030064 -0.5083665 -0.025169501 -0.19251508 -0.15371376
0.8762732 0.0112226335 -0.09552547 2.3601124 0.091182634 0.23953852 0.048976615 -0.15641047
-0.1544198 -0.1497168 -0.01399168 1.401411 -0.18219218 -0.69634646 1.464006 0.1883598
-0.35234722 0.026831169 -0.12375833 -0.045049343 -0.016218076 0.20133117 -0.66196626 -0.1167798
-0.6411482 1.0830884 -0.71276736 0.15482044 -0.95305777 0.013442084 -0.13994166 0.17674606
0.077519014 0.368283 0.031215958 3.1964824 -0.43077073 -1.3429396 -0.03656538 0.95953363
0.0935718 0.15457271 0.038900092 -0.6314978 -0.18771753 0.5934768 2.158207 -1.1238519
-0.5105871 -0.16383407 -0.25791475 -0.42391053 -0.08092182 0.3775266 -0.9475904 -0.3602594
0.1435952 0.48685634 0.55689645 0.30844745 0.2510657 -0.13761964 -0.06395815 -0.034867533
0.18804492 0.05607549 0.12367659 0.063503414 -0.3010729 0.093204126 -0.032130077 0.237446
0.122157 0.021987626 0.003792395 0.7503969 -1.6350117 0.07722993 1.9500679 0.69853675
-1.4219652 -0.06200522 -0.10339004 1.205062 -0.110772364 -0.004558468 0.35856578 -1.0954965
0.24024004 2.0948837 -0.23494025 0.29240522 -0.10340398 -0.20492527 -0.14900301 0.20545244
-0.12267207 0.045026984 0.19345488 0.07217941 -0.06099505 -0.3682678 0.0042134444 0.15592532
0.24141444 0.14750385 -0.10443021 2.5818434 0.29774362 0.043504532 2.3523765 2.307263
-0.6471199 0.08769416 0.102692425 -0.17121032 0.36329374 0.1388475 -0.37876 -0.25857967

net.4.bias f4 [16]
00000000: bd6a ec3f fc85 a4be c37c ab3f 91f8 b53d
00000010: 69c3 cbbe 2e4e d4be 00ae c53f fed3 1a3f
00000020: 537a 4cbf 3c2a 83be c269 00bd b0fb 97be
00000030: 1901 c3be c7b7 58be 728b 0dbf 0204 83be
1.8470074 -0.32133472 1.3397449 0.08885301 -0.39797524 -0.41465896 1.5443726 0.60479724
-0.7987415 -0.2561816 -0.03135086 -0.2968421 -0.38086775 -0.21163855 -0.552909 -0.25588995

net.6.weight f4 [8, 16]
00000000: 5a7b abbe b696 953e 22b7 9b3e 106e 71bf
00000010: 3a02 513e 2afe 0ebf 7ad0 a6bf a979 1bbf
00000020: 77a6 ce3c 612f cfbd 465b 8b3e d7f9 9dbe
00000030: 1130 1bbf 72fb 973e 002f 4f3e 83bc 0fbe
00000040: dabe b2bd 8ecd c13d 389a 80bd 17f4 85bf
00000050: 6659 6fbe 223d e0bd cb1b adbe 08c3 dcbc
00000060: 2878 553e 5447 e43d 7d31 f73b b091 7d3d
00000070: c3c3 14bf d6b1 d2bd f840 1c3d 0657 023e
00000080: b1c9 0dbf f05f 563d 6710 07bf 3ab6 9cbe
00000090: f1e8 7abe ac37 48be f9b9 abbe 6380 c5be
000000a0: 9409 b73e 913d f63c 0068 88bc 3ee7 6b3d
000000b0: 6345 28bd a1c2 65be 66d2 d23d 8e83 bc3d
000000c0: 8827 ee3e 38b3 ba3e f0e8 4b3e ceb8 dabe
000000d0: 33c4 b5be f082 a0be c348 b2bf 3f1b edbe
000000e0: fca8 a33e a8f9 eb3c def9 c73c cc85 46be
000000f0: cda7 c8bc c500 44be 855f 0abd 046b 7dbd
00000100: 9fd3 0f3f f2a5 a9be e931 a1bf 9d36 0c3f
00000110: a0e0 d8bc e3d0 5cbd 51f3 0a3f cb78 813e
00000120: aeca b13e 3cb0 72bd 27e5 e03d 5782 15be
00000130: ea13 063e 1957 a4bd d996 2c3e cc2c 803e
00000140: 69a8 a5bd 6a4a b1bd 581e 7cbe 6480 00bb
00000150: 0f83 6fbe 0166 b83e b6b4 e1bc 4508 61be
00000160: 0a4d 26be a15c 8d3e e3cd e33d 3d27 a23e
00000170: 52a0 6e3c 08eb febc bcaf be3e be81 dbbd
00000180: 2c70 1c3f a829 0e3e 46d4 ccbc 9b13 25bf
00000190: 50a6 22bf bbaa d93e 3055 8ebe 2af7 6d3b
000001a0: 362b 6fbe e875 493e 000b 5c3d 306d d9bc
000001b0: 0cd8 afbe 0628 1a3f 6ef2 523e a005 19bd
000001c0: d733 2bbe 34a1 c63e 9d97 203f b7e7 0dbf
000001d0: 796a 203c aff8 61be 8cd4 3fbf 2e9e 1dbf
000001e0: 422c 2b3e 5b22 873e 4d1a 7d3d 72c1 38bd
000001f0: ed14 dbbb 1b12 80be 0ac3 10bf c412 afbd
-0.33492547 0.29216546 0.30413157 -0.9430857 0.20411006 -0.55856574 -1.3032372 -0.60732514
0.025225861 -0.10116459 0.27218074 -0.30854675 -0.6062022 0.29684025 0.20232773 -0.14036755
-0.08727808 0.094630346 -0.06279415 -1.0465115 -0.23373947 -0.1094916 -0.33810267 -0.026948467
0.20846617 0.11146417 0.0075437413 0.061906517 -0.5811121 -0.10287826 0.038147897 0.1272851
-0.5538588 0.052337587 -0.52759403 -0.30607778 -0.24502923 -0.19552487 -0.33540323 -0.38574514
0.35749495 0.030058654 -0.016651154 0.057593577 -0.041081797 -0.22437526 0.102940366 0.092047796
0.46514535 0.36464858 0.19913077 -0.4271912 -0.3550125 -0.31349897 -1.3928455 -0.4630985
0.31964862 0.028805569 0.024411138 -0.19386977 -0.024494076 -0.19140919 -0.0337825 -0.061869636
0.56182283 -0.3313442 -1.2593356 0.54770833 -0.026474297 -0.053910147 0.5427752 0.2528747
0.34724945 -0.0592501 0.10981207 -0.14600502 0.13093534 -0.08024425 0.16854419 0.25034177
-0.08088762 -0.086567715 -0.2462095 -0.0019607777 -0.23389839 0.36015323 -0.02755199 -0.21975811
-0.16240326 0.27609733 0.11123254 0.3167056 0.0145645905 -0.031117931 0.3724345 -0.10718106
0.6110866 0.13883078 -0.025003564 -0.6448304 -0.6353502 0.4251307 -0.27799368 0.0036310651
-0.23356327 0.19673884 0.053721428 -0.026541322 -0.34344518 0.6021732 0.20600292 -0.03735888
-0.16718994 0.38794863 0.62731344 -0.55431694 0.00979101 -0.22067522 -0.74933696 -0.6156949
0.16716102 0.263934 0.06179266 -0.04510636 -0.006685844 -0.25013813 -0.56547606 -0.08548501

net.6.bias f4 [8]
00000000: adf0 d53e 5561 1ebf b113 12bf 02f4 943f
00000010: 5b1f 063f 4df2 b0bd 3837 20bf 6879 be3f
0.41785184 -0.61867267 -0.57061297 1.1636965 0.52391595 -0.08639965 -0.6258426 1.48808

net.8.weight f4 [1, 8]
00000000: 1e42 6c3e 5fbe f73b 7ae7 1dbd aad2 913e
00000010: 911b 9ebe 922a 713e 4617 433c 1064 1e3f
0.23072097 0.007560536 -0.03855083 0.28481036 -0.30880406 0.23551396 0.011907404 0.61871433
