old_work/Classification_AB/NeuralNetwork/best_Model_4_dataV3.1.pth (torch, 5480 bytes, 7 tensors)

net.0.weight f4 [16, 6]
000000 1a 05 34 3d cd 08 2d be a2 fb 46 3e b0 18 c2 3e
       0.043950178 -0.16897888 0.19431928 0.3790946
000010 22 c6 a6 be 06 d5 db bc 67 77 c8 bd 7c 10 ea 3d
       -0.32573038 -0.026834976 -0.09788399 0.114289254
000020 fc 14 0f bf 3c a1 11 3f 24 a1 4c 3e 35 5f cc be
       -0.55891395 0.5688665 0.19983345 -0.39916387
000030 dc c8 8e 3d 9f 52 b5 3d ab 70 1e bf ea 97 cf bb
       0.06971905 0.08853649 -0.6189067 -0.0063352482
000040 09 34 54 3e ea 96 05 c0 09 ba 15 c0 d4 15 38 be
       0.20722975 -2.087336 -2.3394797 -0.17977077
000050 d6 bc b7 be 2a a3 d2 3d ea 86 0c c1 f1 65 42 c0
       -0.35886258 0.10285027 -8.782938 -3.037472
000060 8a 87 1b c0 c0 ef ae be 39 86 b1 bf e6 95 12 3e
       -2.4301476 -0.3416729 -1.3869087 0.14314994
000070 a5 12 14 41 d9 a6 4c bf bb ee 82 3d 07 8f 01 be
       9.254552 -0.7994209 0.063931905 -0.12652217
000080 ca b3 32 be 09 22 10 bd 12 fa f4 ba 06 6f 8a be
       -0.17451397 -0.03518871 -0.0018690249 -0.2703783
000090 d0 32 31 c0 87 a2 f1 be fc ab ed be 7b 63 98 3e
       -2.7687263 -0.4719431 -0.46420276 0.29763398
0000a0 c9 0e 46 be 2e 09 0b 40 14 26 47 3d 79 4c a8 bd
       -0.19341578 2.1724353 0.0486203 -0.08217711
0000b0 9b c4 2f bf 51 24 c0 bc 0f df 9d 3f 90 71 88 be
       -0.6865937 -0.023454817 1.2333697 -0.2664914
0000c0 03 49 09 3f 28 12 a6 c0 20 99 ef 3e 80 9b 24 be
       0.5362703 -5.1897163 0.46796513 -0.16074944
0000d0 ea f4 28 bd 36 db 47 40 73 aa 51 40 d9 77 07 be
       -0.041249193 3.1227546 3.2760284 -0.13229312
0000e0 16 93 13 bf 25 32 3d bf 76 0c 92 bd b3 96 16 c0
       -0.5764631 -0.7390464 -0.07131283 -2.352948
0000f0 bb 9f 63 bc d4 d9 c8 bd b1 91 05 3e 2d 1f 9a 3e
       -0.013893063 -0.098071724 0.13043858 0.3010191
000100 fb be 87 be 85 66 82 3e 8d 7f cc 3b 46 d3 f2 be
       -0.26512894 0.2546884 0.006240791 -0.47426814
000110 fd b4 72 3c 02 a9 3d 3e 2a 6a 87 3f ee 09 6a 3e
       0.014813659 0.18521503 1.0579274 0.2285535
000120 88 a8 91 3d ce 88 84 c0 ab 9e 7b bf e7 a6 cf bf
       0.07112223 -4.1417 -0.98288983 -1.622281
000130 96 f6 25 3e 1a 52 77 bf 49 60 09 c0 d0 49 d1 bf
       0.16207346 -0.9660965 -2.1465018 -1.6350651
000140 70 9a 08 40 18 b1 e5 3f 3d 71 cd 3e 01 39 5a c1
       2.134426 1.794467 0.40125456 -13.638917
000150 96 f7 ce bf 09 1a 5f 3f 01 7f 0a c1 a4 0d 20 3f
       -1.6169307 0.871491 -8.656007 0.62520814
000160 49 09 6b c0 13 04 0e 40 b4 86 af 3c 96 1b d8 3f
       -3.6724417 2.2189987 0.021426536 1.6883419
000170 6d fb 45 3f aa d9 93 3d ce 00 8e 3d e8 8c 8f c0
       0.7733677 0.072192505 0.06933747 -4.4859505

net.0.bias f4 [16]
000000 d8 c8 c8 be b1 40 47 3d f8 49 91 3e da e9 93 bf
       -0.39215732 0.04864568 0.28376746 -1.1555741
000010 1e 10 88 bf cb ee 1e be 57 34 0e c0 5a f7 73 be
       -1.0629919 -0.1552078 -2.2219446 -0.23824826
000020 7a 99 44 40 91 30 9f c0 d3 b1 86 be 32 59 ca 3c
       3.0718675 -4.9746785 -0.26307544 0.024700735
000030 99 61 2d c0 a5 59 48 bf 93 cd b1 3f 7a 4a 62 bf
       -2.709082 -0.78261787 1.3890861 -0.8839489

net.2.weight f4 [16, 16]
000000 67 d2 04 3e 07 a8 5a be 9e a5 bd be d0 6b 0e c2
       0.12970887 -0.2135316 -0.37040418 -35.605286
000010 70 55 a7 be 85 5d d1 3d c3 18 f4 bd c0 66 25 bc
       -0.3268237 0.102229156 -0.119187854 -0.010095298
000020 9e 7b f4 c0 28 ca b6 3f b8 0e ed bd fd 22 33 bf
       -7.64009 1.4280443 -0.11575073 -0.6997526
000030 62 2e 85 c1 85 97 5d bf 49 e2 99 be 5a a4 3c 3f
       -16.647648 -0.86559325 -0.30055454 0.7368828
000040 2f 88 f2 bd be 28 0f bf 0d 3f 6a 3f a7 90 b5 3e
       -0.11842381 -0.5592154 0.9150246 0.35461923
000050 fc 45 17 3f 24 5b 34 3e 2d df 46 bf 03 db 15 3e
       0.5909116 0.17612892 -0.7768429 0.14634328
000060 6f 75 11 40 4b 16 50 3f c0 fe d5 3c 1f db 23 bc
       2.2727926 0.81284016 0.02612245 -0.010000973
000070 5f 11 80 3f af 01 e9 bf 33 f0 5f c0 ed 88 5b 3f
       1.0005301 -1.8203639 -3.4990356 0.8575581
000080 c0 27 99 bd f2 c6 4e be 7b 40 96 3e 0f 57 42 40
       -0.07478285 -0.20193079 0.2934607 3.0365636
000090 9a 64 3f c0 97 90 32 3e 3c 07 cd be 1b 8e 0c be
       -2.9905152 0.17437969 -0.40044582 -0.13726084
0000a0 2b 4c 0d 3f 47 53 b3 be 78 4b 84 3d 6e 16 4b be
       0.5519435 -0.35024473 0.06459707 -0.19832775
0000b0 c4 fb a8 bd 9d 22 7a c0 dc dc 77 c0 00 5e 47 bd
       -0.082511455 -3.9083626 -3.8728552 -0.04867363
0000c0 ff fb 9a be 4b c8 a4 be da 4a 31 be b1 e3 30 c0
       -0.30270383 -0.3218406 -0.1731371 -2.7638972
0000d0 87 19 35 c0 55 bb 44 3e de d3 bb c0 90 a8 ab 3d
       -2.829683 0.19212086 -5.8696127 0.0838176
0000e0 31 e8 63 c0 59 f8 4d bd 64 08 dc 3d ea bf 34 3d
       -3.5610468 -0.05028567 0.10743788 0.044128336
0000f0 63 13 ad bf 1c 03 52 be a0 4b a2 be 2f a0 61 c0
       -1.3521541 -0.20508999 -0.31698322 -3.5254018
000100 d8 64 28 3d 99 c8 0c bd 9a 21 7b be 98 c2 92 be
       0.041111797 -0.034370992 -0.24524537 -0.28664088
000110 04 66 70 be 1e b2 cd bc 65 f8 6b bc 98 79 81 be
       -0.23476416 -0.025109347 -0.014402484 -0.2528808
000120 43 c0 9a 3c d5 a1 1f be 94 7f 45 3e ea a1 8a be
       0.018890506 -0.15589078 0.19286948 -0.27076656
000130 27 a8 db be b2 e8 94 bd a8 60 a6 bd bf 25 84 bd
       -0.42901728 -0.072709456 -0.081239045 -0.06452512
000140 74 4a 57 3e 65 a0 c6 bd 88 23 8f be 0e 98 2a be
       0.21024495 -0.096985616 -0.27956796 -0.16659567
000150 0f 55 88 be 1a 51 28 be 73 13 ca be 52 75 e2 be
       -0.26627395 -0.16437188 -0.39467964 -0.44230133
000160 81 41 d6 be 10 45 04 be ec a0 b9 bd 27 6f d7 be
       -0.4184685 -0.1291697 -0.090638965 -0.4207699
000170 94 7b 1b be fb eb 94 be b7 ec d1 bd b8 93 e3 be
       -0.1518386 -0.2908629 -0.10250228 -0.44448638
000180 bc cc 12 3e 4d 6a c0 be d1 3c 1b bd 50 37 b8 bd
       0.14335912 -0.375811 -0.037899796 -0.08994925
000190 0f ab 8f bd 86 a2 99 3c 85 53 8e 3c a6 88 8c be
       -0.07015049 0.018754255 0.01737381 -0.27448004
0001a0 c4 24 86 3b ee 37 05 bf 56 11 15 be b2 05 db be
       0.0040937383 -0.52038467 -0.14557394 -0.42777783
0001b0 76 f7 dd be a6 3a c3 bd 7a d9 bd be fc 91 a1 be
       -0.4335286 -0.09532671 -0.37079984 -0.3155669
0001c0 41 85 3b 3d c4 7e ff bd 24 3f 94 3f 46 f5 93 3f
       0.045781378 -0.124753505 1.1581769 1.1559227
0001d0 a8 b2 47 bf dc 33 0e 3c dc 51 d5 bb 7a f4 62 be
       -0.7800698 0.008679356 -0.0065100025 -0.22163573
0001e0 3e 25 8e be 3b b6 2b bf 00 3a 43 be 34 78 1f be
       -0.2776279 -0.67074937 -0.19065094 -0.15573198
0001f0 c9 84 bd bf bb 86 14 c0 c9 85 35 c0 5d 6e 8b 3d
       -1.4806148 -2.3207233 -2.8362906 0.068081595
000200 68 93 9e bd 47 09 0e bd e8 3b 05 bd 21 fb 54 bf
       -0.07742959 -0.034676816 -0.032527834 -0.8319569
000210 9b 23 00 3e 9d 5c 0b bd 61 de 67 3f 68 92 b2 3e
       0.12513582 -0.03402387 0.905737 0.34877324
000220 b9 70 07 bf 95 2d 1e be 08 0d 6e bd b9 e6 95 3e
       -0.52906376 -0.15447076 -0.058117896 0.2927759
000230 9e be 01 c0 3c fb 03 c1 88 7b 28 40 95 f6 90 bf
       -2.0272593 -8.2488365 2.6325397 -1.1325251
000240 62 7f 90 bd b6 c9 a2 bc 45 39 da 3e 66 e0 ff be
       -0.07055546 -0.019871574 0.42621818 -0.4997589
000250 78 87 29 bf 0e 36 66 3e fb 1f 85 bf 4a fe c2 3e
       -0.66222334 0.22481558 -1.0400385 0.38084632
000260 18 c3 3f be 10 83 b0 be 7e 5a 77 3e ac ab 10 3c
       -0.18726766 -0.34474993 0.24155614 0.008829992
000270 25 df 8a bf 16 f3 9d bf 74 1d d0 3e bd 3e 04 bf
       -1.0849348 -1.2339809 0.4064747 -0.5165823
000280 9a a6 62 3d a4 15 66 3e 6e 33 5e be d0 28 2f 3f
       0.055334665 0.22469193 -0.21699306 0.6842165
000290 af 23 a6 bf 0e 3b 2d be 00 23 a9 3f 0c b2 5b be
       -1.297964 -0.16917059 1.3213806 -0.21454638
0002a0 65 4d ab be c1 2f 89 bf 88 43 74 be 2b 44 bb 3d
       -0.33457485 -1.0717698 -0.23853886 0.091438614
0002b0 0a de 90 3f da 36 72 3f 47 d2 d0 c0 e7 d4 08 bf
       1.1317761 0.94614947 -6.5256686 -0.53449863
0002c0 66 a1 78 be 17 c1 f0 be f5 ff cb 3d 73 b6 4c 3f
       -0.24280319 -0.47022316 0.09960929 0.79965895
0002d0 da 8b 0f c0 c9 74 f8 bd d1 c9 89 3f 5e 90 a4 ba
       -2.2429109 -0.1213165 1.0764714 -0.0012555232
0002e0 ae f8 bc 3f 9b b1 bb bf e8 62 15 bd 76 60 cd 3d
       1.4763391 -1.4663576 -0.036471277 0.10028164
0002f0 c9 3d bb 3f 6c 1b a5 bf 54 0b 82 c0 01 3f d4 bf
       1.462823 -1.2898993 -4.063883 -1.6581727
000300 5d 3a 45 be b7 21 bf 3d bb a7 c3 3d b0 2e f2 c0
       -0.19260545 0.093326025 0.095534764 -7.568199
000310 af 4d e0 c0 41 b6 87 3a 3c a5 23 be a4 ca 46 3e
       -7.009483 0.0010353999 -0.15981 0.19413239
000320 7d 0e 00 40 c8 a2 05 bf 14 a6 dc 3d 23 6e 51 3e
       2.0008843 -0.5220151 0.107738644 0.2045217
000330 ee b5 0d bf 25 68 fe be 58 42 1e bf 57 a4 37 c0
       -0.5535573 -0.4968883 -0.6181998 -2.8694055
000340 d4 61 2f be 5c 32 56 be 32 48 22 be 4e 2e 74 be
       -0.17127162 -0.20917648 -0.15847853 -0.23845789
000350 d8 0d d4 be ae ae 9f bc c1 87 be be 20 0d a7 3d
       -0.41416812 -0.019492473 -0.37212947 0.081568
000360 2b 72 94 3d 38 2b f8 be a8 56 0b 3e 06 5c b2 be
       0.07248338 -0.48470473 0.13607275 -0.34835833
000370 52 80 10 bf 3d 5c d9 bd 76 41 bf 3d b6 78 b9 be
       -0.564458 -0.10613296 0.093386576 -0.36224908
000380 29 36 4d 3d da 42 92 be fc 29 2e be f3 d4 ec be
       0.05010048 -0.2856663 -0.17008203 -0.46256217
000390 41 ca e3 bd 8f b9 bd 3d 24 0c 6a be 87 2f dc 3d
       -0.11122561 0.09263908 -0.22856194 0.107512526
0003a0 dd e8 50 be 7c 6e a5 be 3a dd 27 3e e2 6d fb bd
       -0.2040133 -0.32310855 0.16392985 -0.12276818
0003b0 55 f7 49 bd a2 8f 2a be ed 00 5e be 5c c7 dd bd
       -0.04930814 -0.16656354 -0.2168004 -0.108290404
0003c0 1c 78 03 3e d6 48 11 bf e5 16 01 bf fc 70 78 bd
       0.12838787 -0.56751764 -0.5042556 -0.060654625
0003d0 39 e4 f3 be cc 7b fa bd eb 5e cd be bc 47 1b bf
       -0.47635058 -0.12230644 -0.4011148 -0.6065633
0003e0 87 9f 4e 3c c7 b4 0e bf 9c df 17 be c7 df f0 be
       0.0126112765 -0.55744594 -0.14831394 -0.4704573
0003f0 27 86 bd bc ae d9 8d be b8 dc 13 be ea 1a 45 bf
       -0.023135258 -0.2770514 -0.14439666 -0.7699419

net.2.bias f4 [16]
000000 c6 5e 24 c1 07 21 26 40 42 75 2d bf 87 45 39 40
       -10.273138 2.5957658 -0.67757046 2.8948686
000010 b1 e7 57 be ef 9b e4 be 12 44 f8 bd 9a 94 45 40
       -0.21084477 -0.44650218 -0.121223584 3.087195
000020 a8 8c bd 3e 8a f7 b1 be 66 2d 8a c0 36 f1 a7 3f
       0.37021375 -0.3475917 -4.318042 1.3120487
000030 9f 3a 40 40 91 be c9 be ce 3f 19 bf ae ec 27 bf
       3.003578 -0.39403203 -0.59862983 -0.6559552

net.4.weight f4 [8, 16]
000000 ba 40 00 c0 4d 50 95 3b fd 18 83 bf b2 97 1b c0
       -2.0039506 0.0045566917 -1.0242001 -2.4311337
000010 7b 3c 0c 3e a7 35 19 be 18 04 86 3d da 2b c1 3d
       0.13694946 -0.14961873 0.065437496 0.09432192
000020 82 3e 81 bf 58 48 3e be 06 c6 6f bf f5 18 75 be
       -1.0097201 -0.18582284 -0.93661535 -0.23935302
000030 fd b7 f8 bf fb e2 ea 3e 2b 7f 3d be 67 2a 28 3d
       -1.9431149 0.45876297 -0.18505542 0.041056063
000040 d5 74 1f c0 5d c9 b6 3f e4 fe 79 be 60 e0 51 c0
       -2.4915059 1.4280201 -0.2441364 -3.2793198
000050 db e6 13 be 2d 0c 28 be b1 e6 21 be 54 7d fc bd
       -0.14443533 -0.16410895 -0.15810658 -0.12328592
000060 a7 cc ca 3e cd 92 83 3d 29 c9 81 bf fb 6e 5c bf
       0.39609262 0.064244844 -1.0139514 -0.8610684
000070 43 33 80 c0 4e 0b b2 3e b7 ba 3a 3e 17 8b 53 bb
       -4.0062575 0.3477425 0.18235289 -0.003227895
000080 fc bd 16 bf 58 07 37 bf 49 06 94 3e e8 52 d7 bd
       -0.58883643 -0.7149558 0.28911045 -0.1051386
000090 0d 1e 87 be 82 8a dc bd 34 e7 c2 3b d1 8a 35 bf
       -0.26390114 -0.10768606 0.0059479717 -0.7091494
0000a0 cf 80 c4 bf dc c1 dd 3d 11 24 61 bf bc cf 86 bf
       -1.5351809 0.10827991 -0.8794566 -1.0532146
0000b0 22 56 65 bf 46 b6 ae 3e 0f 91 fa bc ad 35 cb 3c
       -0.89584553 0.3412344 -0.030586747 0.024805868
0000c0 70 2a 5d bf 9b 9a 12 bd 7d 6d 30 bf 47 05 cf bf
       -0.8639288 -0.035791975 -0.68917066 -1.6173486
0000d0 13 e6 5d 3d e6 0a 49 be 6a af 5e bd ee cc b3 3c
       0.054174494 -0.19633064 -0.054366507 0.021948304
0000e0 3e 32 9b bf dc e0 c4 be 03 b0 b9 be b6 8c bf bf
       -1.2124708 -0.38452804 -0.362671 -1.4964817
0000f0 36 a0 78 bf 3e d5 23 3f 59 67 ae bd 99 74 6d 3d
       -0.9711946 0.63997257 -0.08515806 0.057972524
000100 86 1c a6 3b 10 20 f1 bd fe 75 b1 be 9c 0e 85 be
       0.005069318 -0.117736936 -0.34660333 -0.2598771
000110 73 c1 94 3c c8 82 05 3f a9 97 8c bd 58 ed a7 be
       0.01815865 0.5215268 -0.068648644 -0.32798266
000120 5b df 30 bf aa 6b d4 be 5d f4 8c bd b5 b8 2b be
       -0.69090813 -0.4148839 -0.06882546 -0.16769679
000130 fc 70 cc 3d 06 36 4e be 86 ce 25 3e bd 6b ae 3d
       0.099824876 -0.20137796 0.16192064 0.08516643
000140 b3 7f 42 3e 0c 09 55 be 89 40 0f be 83 9b 09 bf
       0.18994026 -0.20804232 -0.13989462 -0.5375292
000150 2e 49 89 3f 40 24 09 be 4d 60 d9 3d 9c f8 d3 be
       1.0725458 -0.13392735 0.10614071 -0.4140061
000160 a7 08 fc be b0 37 20 bf 8c 2b 26 bf 05 ae 09 bf
       -0.4922535 -0.6258497 -0.649102 -0.5378116
000170 5d b9 3a bf a8 06 b3 3d 3f 26 3a 3c f8 7a ef bd
       -0.7293909 0.08741504 0.011361658 -0.11693376
000180 01 80 15 c1 fb 0a 66 3f d7 69 0b 3f 9b 38 8a be
       -9.343751 0.89860505 0.54458374 -0.26996312
000190 67 a3 21 3d 74 fb 1c be 2d dc 09 3d 50 b3 55 3e
       0.039462473 -0.15330297 0.03365724 0.20869184
0001a0 cd 68 ca c0 31 8d fb 3d 2c c7 3b bf 01 a4 fd bd
       -6.325293 0.122827895 -0.7335079 -0.12384797
0001b0 74 0e 92 c0 01 a5 33 3f ea b8 e1 3d 5d d3 82 3d
       -4.5642643 0.7017365 0.11021598 0.063879706
0001c0 d2 9f 21 c0 85 1c a0 bd 5c d4 1d c0 b2 93 48 be
       -2.5253797 -0.0781794 -2.4660864 -0.19587591
0001d0 0d a8 44 3e 10 85 f9 bd dc 82 44 be 92 32 8e bf
       0.19204731 -0.12183583 -0.19190544 -1.1109183
0001e0 55 47 a3 be 79 80 2c 3e 01 17 b7 3e a8 d5 97 3f
       -0.3189036 0.16845883 0.35759738 1.1862078
0001f0 2b 5d 73 3f 8f 2e 43 be c5 b8 7b 3e 26 d9 eb 3e
       0.9506404 -0.1906073 0.24582203 0.4606411

net.4.bias f4 [8]
000000 63 b5 3c bf cd ce 8a 3f 70 ba 11 be 43 2e ad bd
       -0.73714274 1.084436 -0.14231277 -0.08456089
000010 51 83 12 bd b7 18 6d be 64 63 68 bf 29 63 53 40
       -0.035769764 -0.23153959 -0.9077666 3.3029273

net.6.weight f4 [1, 8]
000000 72 18 00 3d 46 46 8c be f3 91 8b 3e 0a 23 98 bd
       0.031273313 -0.27397364 0.27259788 -0.07428558
000010 d9 b6 c3 3a dc d7 c5 bd 76 1f 26 be 62 f5 b9 3e
       0.0014931812 -0.096603125 -0.16222939 0.36320025
