old_work/Classification_AB/NeuralNetwork/best_model.pth (torch, 10274 bytes, 15 tensors)

net.0.weight f4 [32, 6]
0	0x3d7378a2	0.059441216
1	0x3fd00e83	1.6254429
2	0xbf2f9eaa	-0.6860148
3	0x3f88a50d	1.067537
4	0xbf469407	-0.7756962
5	0xc0896437	-4.2934833
6	0x3f8ae077	1.0849751
7	0xbfe06a54	-1.7532449
8	0xbfd2d462	-1.6471064
9	0xbfc6a43f	-1.5518874
10	0xbda3dd2f	-0.08001172
11	0x3f81d739	1.0143806
12	0xbf6d2d7e	-0.9264754
13	0x3f341147	0.70338863
14	0xc0800a60	-4.0012665
15	0x3f434a45	0.762852
16	0xbd830835	-0.0639805
17	0x3fc584c7	1.5431145
18	0x3e06059a	0.13088074
19	0x3f422fc6	0.75854146
20	0xbf4cf45c	-0.8006036
21	0xc002bb87	-2.0426958
22	0xc0f5d6b3	-7.6824584
23	0xbc468431	-0.012116478
24	0x3f588e0e	0.8459176
25	0xc04fe178	-3.2481365
26	0x3f599dbf	0.85006326
27	0x3ed47c1a	0.41500932
28	0xbd7c7d96	-0.061643206
29	0x3e913748	0.2836249
30	0x3ed26070	0.410892
31	0xbf0f7e4b	-0.5605208
32	0xc00d59fc	-2.2086172
33	0xbe4be095	-0.1990989
34	0x3e4484ce	0.19191286
35	0x406d20ab	3.705119
36	0x3f341aa2	0.7035314
37	0xbfbceb6f	-1.4759349
38	0xbee9c0eb	-0.45654997
39	0x4055fbf0	3.343502
40	0x3e9b5101	0.3033524
41	0x3ea3ba27	0.3197796
42	0xbb7a9526	-0.0038235872
43	0xbf767330	-0.9626951
44	0x3fff007b	1.9922022
45	0xc0a12d2d	-5.0367646
46	0xbebab1f9	-0.36463907
47	0xbf356cee	-0.7086934
48	0x3e205b14	0.15659744
49	0xbfe481df	-1.7852134
50	0x3f8747b4	1.0568757
51	0xc099f746	-4.8114347
52	0xbdb3603e	-0.08758591
53	0x3f5ec351	0.8701678
54	0x3e11ff57	0.1425756
55	0xbfd437e0	-1.6579552
56	0x3f9a7f29	1.2070056
57	0xbfb18c8f	-1.387102
58	0xbe0f2faf	-0.13983034
59	0x403bc383	2.933808
60	0xbe2eb714	-0.17062026
61	0x3faba20d	1.3408829
62	0xc0aeb3b4	-5.4594364
63	0x3f8b0e58	1.0863752
64	0xbf2f1dda	-0.68404925
65	0x3f5df212	0.86697495
66	0x400c3fca	2.1913934
67	0xbee18880	-0.44049454
68	0xbfca4998	-1.5803709
69	0xbf1a61f0	-0.6030569
70	0x3dd8edff	0.10592269
71	0x3f3acfdb	0.7297341
72	0x3f334156	0.7002157
73	0xc080db49	-4.026768
74	0x3f3ac9fa	0.7296444
75	0xbeb0636f	-0.34450862
76	0xbd608355	-0.054812748
77	0x3f119b8b	0.56877965
78	0x4005e297	2.091955
79	0xbee7a394	-0.45241988
80	0x3f239d4e	0.639119
81	0xc05b5faf	-3.427715
82	0xbe816d99	-0.2527893
83	0x401e5d45	2.4744427
84	0x401f58e4	2.4898005
85	0x3dba873d	0.09107826
86	0xbe918ced	-0.2842783
87	0xc0422690	-3.0336037
88	0xbe4b870c	-0.19875735
89	0x40275d72	2.6150784
90	0x3d896a51	0.06709731
91	0x3f8ff575	1.1246783
92	0xbfa7d80f	-1.3112811
93	0xbf0a5481	-0.5403519
94	0x4106bbb5	8.420827
95	0x3f00d0bb	0.503185
96	0xbe1ec8c7	-0.15506278
97	0xbfdd3d6b	-1.7284368
98	0x401e77ab	2.476054
99	0xbe8da420	-0.2766428
100	0x3e0731a2	0.13202527
101	0x3ea37af3	0.3192974
102	0x3db4c80a	0.08827217
103	0x3fddd9b3	1.7332062
104	0xbe0cb055	-0.1373914
105	0x3fbd8a46	1.4807823
106	0xbeabd5ae	-0.33561462
107	0xc0755f69	-3.8339484
108	0xbe2397ab	-0.15975825
109	0xc0819743	-4.0497146
110	0x4045c2e4	3.0900202
111	0xbbdec33d	-0.0067981766
112	0xbe05b5cb	-0.1305763
113	0x3e89fc46	0.26950282
114	0xbe873abf	-0.26412007
115	0x3f4c22b4	0.7974045
116	0xc0830757	-4.094646
117	0x3f62042b	0.8828761
118	0x3ea1d975	0.3161122
119	0x405274e6	3.288385
120	0xbe0e0202	-0.13867953
121	0x3f7bc652	0.9834949
122	0xc07e7000	-3.975586
123	0x3f3bff20	0.73436165
124	0x3dfb10c8	0.1225906
125	0x40372593	2.8616683
126	0x3df6dab0	0.1205343
127	0x3f1a4452	0.602605
128	0xbf41b13b	-0.7566106
129	0xbfe74b08	-1.8069773
130	0x40ea6ace	7.3255377
131	0xbe68a0c1	-0.22717573
132	0x3fb5edea	1.4213231
133	0x3f51cc6c	0.8195255
134	0xbfdc7bf2	-1.7225325
135	0xbe7339cf	-0.23752521
136	0x3f14210b	0.5786292
137	0x3d09f9e3	0.033685576
138	0x402264f0	2.5374107
139	0x3f25464f	0.6456041
140	0xbf806bf2	-1.0032942
141	0xbfde5e6a	-1.7372563
142	0xbdce9144	-0.10086301
143	0x400fdc3f	2.2478178
144	0xbe29e203	-0.16590123
145	0xc0895354	-4.291422
146	0x402aa925	2.6665738
147	0x3e5f77ad	0.21822996
148	0x3d28744f	0.041126546
149	0xbcc0c626	-0.023531985
150	0xbc91e17a	-0.01780771
151	0x401108fc	2.2661734
152	0xc052be14	-3.2928514
153	0x3f9965e1	1.1984216
154	0x3d176f99	0.036971662
155	0xbfae78f1	-1.3630658
156	0x3f2c80fc	0.67384315
157	0xbfe66eaf	-1.8002528
158	0xbf643443	-0.89142245
159	0xc02151f1	-2.5206263
160	0x3e6a8fb3	0.2290638
161	0x3f851f8c	1.0400252
162	0xbde1aaba	-0.11018892
163	0x3f7a0ec6	0.9767879
164	0xbf9af150	-1.2104893
165	0xbe07f4c0	-0.13276958
166	0xc0c04cce	-6.0093756
167	0x3ff47488	1.9098063
168	0x3e371008	0.17877209
169	0xc08a002c	-4.312521
170	0x3feeb012	1.8647482
171	0x3ddb5f78	0.107115686
172	0x3e8248fd	0.2544631
173	0xbd2f47f7	-0.04279324
174	0xbe61a997	-0.2203735
175	0x4015ac81	2.3386538
176	0xc03b811f	-2.929756
177	0x3f6fe897	0.9371428
178	0x3f42d72b	0.7610957
179	0x3f1e71ae	0.6189221
180	0xbdc3e2f7	-0.095647745
181	0x3faad7c8	1.3347101
182	0x3e453d8c	0.1926176
183	0x3fe13203	1.7593387
184	0xbe851cb9	-0.25998476
185	0xc077fe89	-3.8749106
186	0x401982c6	2.3986068
187	0x3f1e820d	0.6191719
188	0xbfa88e71	-1.316847
189	0xbfe15344	-1.7603536
190	0xbd8a5294	-0.06754032
191	0x3e0f2c56	0.13981757

net.0.bias f4 [32]
0	0xbd940ec0	-0.07229376
1	0xbe26b507	-0.16279994
2	0xbd12e63d	-0.035864104
3	0x3ed55ee7	0.41673967
4	0xbd80b55a	-0.0628459
5	0x3e27f959	0.16403712
6	0x3d4566c6	0.048193716
7	0x3de38af0	0.111104846
8	0x3e93d411	0.2887273
9	0x3e91b3ce	0.28457493
10	0xbe8af8dd	-0.27142993
11	0xbd0b3b3d	-0.03399204
12	0xbe153905	-0.14572532
13	0x3e5d9328	0.21638167
14	0xbeceeaa3	-0.4041339
15	0xbe778b0b	-0.24174134
16	0x3d87ba88	0.06627375
17	0xbdf6ea95	-0.12056462
18	0x3d411c9b	0.04714642
19	0x3c05043b	0.008118684
20	0x3dbe453d	0.0929055
21	0xbe9dc8e9	-0.30817345
22	0x3c5641c6	0.013077205
23	0x3ed0ebb0	0.40804815
24	0x3de9815f	0.11401629
25	0xbebf359f	-0.37345597
26	0x3deca4d5	0.11554877
27	0xbde5274d	-0.11189137
28	0x3dd9d535	0.10636369
29	0x3ea3b2f2	0.31972462
30	0xbe5acfcc	-0.2136833
31	0x3e26d373	0.16291599

net.1.weight f4 [32]
0	0x3f123ee9	0.57127243
1	0x3fd91441	1.6959306
2	0x3fc971ff	1.5737914
3	0x3ff01c8a	1.875871
4	0x3ff0f6e5	1.8825346
5	0x4002725f	2.0382307
6	0x3fd5e10e	1.6709306
7	0x3fa1b013	1.2631859
8	0x3f86aa08	1.052064
9	0x3fbbd8ff	1.4675597
10	0x3fc98ca7	1.5746049
11	0x3ff70eef	1.9301432
12	0x40120d74	2.282071
13	0x4015bf76	2.3398108
14	0x403bf6ff	2.9369504
15	0x3fc6ebfc	1.5540767
16	0x3f5181a8	0.81838465
17	0x3f336f16	0.7009138
18	0x4005c8cf	2.0903814
19	0x402d1512	2.704411
20	0x4021bc67	2.5271242
21	0x3ffe963e	1.98896
22	0x3fd83b3f	1.689308
23	0x401d16ea	2.4545236
24	0x400b178b	2.173312
25	0x3fc39f65	1.5283018
26	0x3fd68fbb	1.6762613
27	0x3fded1a4	1.7407727
28	0x400f0aac	2.2350264
29	0x3f9c917c	1.2231898
30	0x3f40ad2a	0.7526423
31	0x4028c0f9	2.636778

net.1.bias f4 [32]
0	0x3e4e805d	0.20166154
1	0xbed0f353	-0.40810642
2	0xbf95204e	-1.1650484
3	0xbffd132b	-1.9771475
4	0xbf7c6326	-0.9858879
5	0xbf4dc329	-0.80375916
6	0xbfca0b9b	-1.5784792
7	0xbfa667d7	-1.300044
8	0xbde29f71	-0.11065567
9	0xbf52403b	-0.8212926
10	0xbf5ad817	-0.85485977
11	0xbf19e501	-0.6011506
12	0xbf91eff7	-1.1401356
13	0xbf872063	-1.0556759
14	0xbfcc524d	-1.5962616
15	0xbfa96d39	-1.3236457
16	0xc02ac898	-2.6684933
17	0x3ec3dcb9	0.38254336
18	0xbf7884b5	-0.97077495
19	0xbf88af82	-1.0678561
20	0xbf8290b5	-1.0200411
21	0xc00917cb	-2.1420772
22	0xbf277be8	-0.6542344
23	0xbf3d66b4	-0.7398484
24	0xbf8017d6	-1.0007274
25	0xbf662a7c	-0.89908576
26	0xbedec464	-0.4350921
27	0xbfd81665	-1.6881834
28	0xbf70d812	-0.940797
29	0xbfa3d929	-1.2800647
30	0x3e96caa6	0.29451483
31	0xbf42c88b	-0.76087254

net.1.running_mean f4 [32]
0	0xc1248ae3	-10.283908
1	0x406225c5	3.5335553
2	0xc185120c	-16.633812
3	0x4197acba	18.95934
4	0xc12da839	-10.85357
5	0xc09e4e2e	-4.9470434
6	0xc21505c4	-37.25563
7	0x424a3daf	50.560238
8	0x422f4567	43.817776
9	0x4164a15b	14.289393
10	0xc1c0c5b2	-24.09653
11	0xc017edcd	-2.3738892
12	0xc0c56fb2	-6.1698847
13	0x42038ed3	32.889477
14	0x41d658a6	26.793285
15	0x4079d0e7	3.9033754
16	0x40c95309	6.291386
17	0xc13c262b	-11.759318
18	0xbf646c4b	-0.8922774
19	0xc18a9e64	-17.32734
20	0xc1749ca5	-15.288243
21	0x41773d7d	15.452512
22	0xc020fd59	-2.515463
23	0x416748b8	14.455254
24	0xc0a7e1b4	-5.2463017
25	0xc1861450	-16.759918
26	0x417bb078	15.730583
27	0x3fbf46b8	1.4943457
28	0xc0e4a0c5	-7.144625
29	0xc12c5d62	-10.772799
30	0xc1649aa5	-14.287755
31	0x41418dd2	12.097124

net.1.running_var f4 [32]
0	0x41bfd045	23.976694
1	0x42c3c9c5	97.89408
2	0x43059981	133.59962
3	0x42175457	37.832363
4	0x423449e1	45.072147
5	0x42822442	65.070816
6	0x41bb26bd	23.393915
7	0x415c5e94	13.77309
8	0x42182f86	38.04641
9	0x413a79d5	11.654744
10	0x430490d9	132.56581
11	0x42a961e4	84.69119
12	0x42b59374	90.787994
13	0x42ac695f	86.2058
14	0x42e6c62a	115.38704
15	0x422ce7df	43.226437
16	0x404a25e4	3.1585627
17	0x4231cab9	44.44797
18	0x4188cb5e	17.0993
19	0x42bddc56	94.93034
20	0x42988dc6	76.2769
21	0x420bce34	34.95137
22	0x4205652f	33.348812
23	0x42f00a80	120.02051
24	0x4203d39d	32.956654
25	0x40eafec4	7.3435993
26	0x429b4ad3	77.64614
27	0x41bf13a5	23.884592
28	0x425e5167	55.579494
29	0x40a48665	5.1414056
30	0x4222c91f	40.696407
31	0x42bfa393	95.81948

net.4.weight f4 [16, 32]
0	0x3fa97878	1.3239889
1	0xbf189f2d	-0.5961788
2	0xbfc0e1ce	-1.506891
3	0x3f53b589	0.82698876
4	0x3f58fb46	0.8475841
5	0xc0266513	-2.599919
6	0x3e9a6900	0.30158234
7	0xbfc1b5b7	-1.513358
8	0xbf685569	-0.90755326
9	0xbf8bbe55	-1.091746
10	0xbfc37783	-1.5270847
11	0xbed53bb8	-0.41647124
12	0x3e03c08d	0.12866421
13	0xc0044182	-2.0664983
14	0xbff3c419	-1.9044219
15	0xbdc0626c	-0.093937725
16	0xbec79bd9	-0.3898609
17	0x3fa6a343	1.3018574
18	0x3beb886b	0.007187893
19	0xc09037a8	-4.506794
20	0xc055dc3d	-3.3415673
21	0x3f1ed66b	0.62045926
22	0x3f121907	0.5706944
23	0xbfc3cb1d	-1.529636
24	0xbeca5522	-0.39518076
25	0x3f47bd08	0.78022814
26	0xbea8a1ce	-0.32935947
27	0xbf32ac6f	-0.6979436
28	0x3e8cb965	0.27485195
29	0xbeed6cae	-0.4637198
30	0x3f8d80de	1.1054952
31	0xbde3ca58	-0.111225784
32	0xbf6377f8	-0.8885493
33	0x3eaadab0	0.3336997
34	0xbee7e71e	-0.45293516
35	0xbfaa1431	-1.3287412
36	0x3fa18fb9	1.2621986
37	0x3d6a9538	0.057271212
38	0x3f2edc66	0.6830505
39	0xbf75aff6	-0.9597162
40	0x3fa29e11	1.2704488
41	0x3fd83247	1.6890343
42	0xbfa6edf4	-1.3041368
43	0xbf56c98d	-0.8390129
44	0x3fd75178	1.6821737
45	0xbf9376a3	-1.152058
46	0xc0269ae4	-2.6032038
47	0xbef15c40	-0.47140694
48	0x3f47ca24	0.7804282
49	0xbf949ad7	-1.1609753
50	0x403bf2ff	2.9367063
51	0xbeca4ed6	-0.39513272
52	0xbf2ce044	-0.675297
53	0xbf980465	-1.1876341
54	0xbf3529df	-0.70767015
55	0xbf341244	-0.7034037
56	0x3ff253fd	1.8931881
57	0xbfdc37ce	-1.720453
58	0x3fae8dc9	1.3637019
59	0xbfd14f49	-1.6352321
60	0x3facefb5	1.3510653
61	0xbfbeb0da	-1.4897721
62	0xbf98c996	-1.1936519
63	0xbea64e8b	-0.324818
64	0x3ca6c053	0.02035538
65	0x3eee4eb4	0.4654442
66	0xbe53fe60	-0.20702505
67	0xbf88158a	-1.0631573
68	0x3fbbae4b	1.4662565
69	0x3f44f528	0.7693658
70	0x3f476b13	0.7789776
71	0xbc7169de	-0.014734713
72	0x3d5fec32	0.054668613
73	0x3f36456c	0.7119968
74	0xbfab7a70	-1.339674
75	0x3f134b7f	0.5753707
76	0x408ff4ac	4.498617
77	0xbfdbe6a8	-1.7179766
78	0xc022a47d	-2.5412896
79	0xbe138c2b	-0.14408939
80	0xc0118261	-2.2735827
81	0xbeb1f282	-0.3475533
82	0x3f99e623	1.2023357
83	0xbee92cca	-0.45541984
84	0xbf261d0c	-0.6488807
85	0xbfa6e1e4	-1.3037686
86	0xbe5c1fcf	-0.21496509
87	0xbf3459a7	-0.704493
88	0x4009f22c	2.155406
89	0xbfe50344	-1.7891622
90	0x3f4c4ab5	0.79801494
91	0xbf9cf66e	-1.2262704
92	0x4067c33f	3.6212919
93	0xbffeb0ac	-1.9897666
94	0xbe8b3b68	-0.2719376
95	0xbe133af5	-0.14377959
96	0x3f30e37c	0.69097114
97	0xbefc2563	-0.49247274
98	0x3dc4ecce	0.096154794
99	0x3ff0cd6f	1.8812693
100	0xbf8111ad	-1.0083519
101	0xbf93c721	-1.1545144
102	0xc04cee87	-3.2020586
103	0xbff62b4a	-1.9231961
104	0xbf410b9a	-0.7540833
105	0xbed5cd09	-0.41757992
106	0x3f4911c5	0.7854274
107	0xc03f7ceb	-2.9919994
108	0x3e74f920	0.23923159
109	0x3e1d5e9e	0.15368125
110	0x3facc738	1.3498297
111	0x403978fa	2.8980088
112	0xc021e220	-2.5294266
113	0x3f08411f	0.53224367
114	0xbe671728	-0.22567427
115	0x3d13c718	0.036078542
116	0x3dbb5214	0.091465145
117	0xbf45a713	-0.7720806
118	0xc019e767	-2.4047487
119	0xc010a821	-2.2602618
120	0x3eb20b0b	0.3477405
121	0x3f892b98	1.0716429
122	0xbe5fff86	-0.21874818
123	0x400fcd53	2.246907
124	0x3f78b45e	0.9715022
125	0x3f0ed1bc	0.5578878
126	0x3e6834c9	0.22676386
127	0xc038f3d3	-2.8898818
128	0x3f26f8a6	0.6522316
129	0xc0560d28	-3.344553
130	0xc06d4b17	-3.7077081
131	0x3ea71bd8	0.3263843
132	0xbfa24859	-1.2678329
133	0xbfbb17ce	-1.461664
134	0xbfadd488	-1.3580484
135	0xbfdd9450	-1.7310886
136	0xc04c739e	-3.1945567
137	0xbf19d703	-0.60093707
138	0xbfca3efb	-1.580047
139	0xbf53ca9a	-0.8273102
140	0xbf7eb09b	-0.9948823
141	0xbf5c02d8	-0.8594184
142	0xbf26a0e9	-0.6508928
143	0x3ef3f787	0.47649786
144	0xbf7ccdc6	-0.98751485
145	0x3e056f87	0.13030826
146	0x3ed050e8	0.40686727
147	0xc07657f3	-3.849118
148	0xbfdadde3	-1.7098964
149	0xbedc22c4	-0.42995274
150	0xbe2be20b	-0.16785447
151	0xbe375d0a	-0.17906585
152	0xbaef9266	-0.0018277883
153	0xbf881fc0	-1.0634689
154	0xc05d7f30	-3.460888
155	0x3f07a1cf	0.52981275
156	0x3e85bf55	0.26122537
157	0x3e337f94	0.17529136
158	0x3b3f49bc	0.0029188236
159	0x3dd6a0a4	0.104798585
160	0x3fa9fa26	1.3279464
161	0x3f30d7c9	0.6907926
162	0x3e912225	0.28346363
163	0x40045677	2.0677774
164	0x3f3093af	0.6897535
165	0xbf12d228	-0.57351923
166	0x3f041165	0.5158904
167	0x4002a6f8	2.041441
168	0x3fd00fd3	1.6254829
169	0x3eaafea6	0.33397406
170	0xbe0737b5	-0.13204844
171	0x3ec2f4a7	0.3807728
172	0x3ebfd6af	0.37468478
173	0x402ac599	2.6683104
174	0x402515cc	2.5794554
175	0x3d85bdd3	0.06530347
176	0xc002a2dd	-2.0411904
177	0x3f987bec	1.1912818
178	0xbf5e03af	-0.8672437
179	0xbe83de30	-0.25755453
180	0xbe87b4bc	-0.26505077
181	0x3fcc4be3	1.5960659
182	0x3f6a74a9	0.9158426
183	0x3facca91	1.3499318
184	0xbf2d0a01	-0.6759339
185	0xbf3571e0	-0.70876884
186	0x3edab04d	0.42712632
187	0xbcb27296	-0.021783154
188	0xbe672f41	-0.2257662
189	0xbf4d484d	-0.8018845
190	0x3fb9ee55	1.4525858
191	0x40390413	2.8908737
192	0xbf890f3b	-1.0707773
193	0x3e8bc1ae	0.27296203
194	0xbf6b6c08	-0.9196172
195	0xbfabb318	-1.341403
196	0x3ffa19c1	1.953911
197	0xbc266491	-0.010155813
198	0x3f4b6aca	0.7945982
199	0xbef4a972	-0.47785527
200	0x3f2745e3	0.65341014
201	0x3fd192e3	1.6372951
202	0xbf6431c3	-0.8913843
203	0xbde056f8	-0.10954088
204	0x3fbbf03c	1.4682689
205	0xbfad8f87	-1.3559426
206	0xbfeb027b	-1.8360132
207	0xbf6c9073	-0.9240791
208	0x3e9ac55d	0.302287
209	0xbfb8ff02	-1.4452822
210	0x401057a0	2.2553482
211	0xbf632a19	-0.8873611
212	0xbf34ac74	-0.7057564
213	0xbfded85f	-1.7409781
214	0xbf5a6e49	-0.8532453
215	0xbf4e1a0b	-0.8050849
216	0x3fd5e368	1.6710024
217	0xc02a911c	-2.6651068
218	0x3f899cdf	1.0750998
219	0xbfbec69b	-1.490436
220	0x3fcb943f	1.5904616
221	0xc004dcc4	-2.0759745
222	0xbf9549cf	-1.166315
223	0x3db439b4	0.088000685
224	0x3ef7343b	0.48282036
225	0xbf0508ef	-0.51966757
226	0x3eb06069	0.34448555
227	0x3fdd6240	1.7295609
228	0xbf03f98d	-0.5155266
229	0xbf2b6da7	-0.6696419
230	0xc00aa915	-2.16657
231	0xbfa38b7a	-1.277694
232	0xbe617067	-0.22015534
233	0xbf046075	-0.5170968
234	0x3f13a9b1	0.57680804
235	0xc020d559	-2.5130217
236	0x3de4e15b	0.11175796
237	0xbf9b0aa1	-1.2112619
238	0xbff40a2a	-1.9065602
239	0x403b0137	2.9219491
240	0xc0075a71	-2.114895
241	0x3dced31f	0.10098862
242	0x3eb68237	0.3564622
243	0x3ec38c08	0.38192773
244	0x3a83b768	0.0010049166
245	0x40439e8d	3.0565522
246	0xbfdb6d04	-1.7142644
247	0xc042d277	-3.0440958
248	0x3efc34fd	0.49259177
249	0x3ef61329	0.48061493
250	0xbb0448a5	-0.00201849
251	0x403bb87e	2.9331355
252	0x3f24b2fb	0.643356
253	0x3ecd81b1	0.4013801
254	0x3dfd95e3	0.12382104
255	0xc066b0c0	-3.604538

net.4.bias f4 [16]
0	0x3d5614f9	0.052266095
1	0x3e35af0b	0.17742555
2	0x3b5a34ca	0.0033295625
3	0x3d13de2a	0.036100544
4	0xbd270160	-0.040772796
5	0xbc8fff9e	-0.017577942
6	0x3cd1f433	0.025629139
7	0xbe87f36c	-0.26552904
8	0xbd39fce8	-0.045407206
9	0x3e0d41e0	0.1379466
10	0x3dff6f86	0.12472443
11	0x3df0a5da	0.11750384
12	0x3e351afd	0.17686076
13	0xbdb39552	-0.08768715
14	0xbd0901fe	-0.033449166
15	0xbe001dea	-0.12511411

net.5.weight f4 [16]
0	0x3fc4b393	1.5367302
1	0x3fce39b7	1.6111363
2	0x3fdfdec2	1.7489855
3	0x3fa16e30	1.2611752
4	0x3fc9d6bf	1.576866
5	0x3f551dff	0.83248895
6	0x3ff5d4ad	1.9205528
7	0x3fa6b9c1	1.3025438
8	0x3fd09a39	1.6297065
9	0x3fb59385	1.4185644
10	0x3fc95c41	1.5731279
11	0x3fc4d061	1.5376092
12	0x4006134b	2.0949275
13	0x3f37ae29	0.7175012
14	0x3fbba2a1	1.4659005
15	0x3fa25cd0	1.2684574

net.5.bias f4 [16]
0	0xbed3a4fd	-0.41336814
1	0x3f2325e0	0.6372967
2	0x3e901b5d	0.28145877
3	0xbf065b88	-0.52483416
4	0xbf9fe618	-1.2492094
5	0xbeec97ae	-0.46209472
6	0x3e9977d4	0.29974234
7	0xbf2602db	-0.6484811
8	0xbf88f0d3	-1.0698494
9	0xbf2329a2	-0.637354
10	0xbf372cf3	-0.7155296
11	0xbf369cd0	-0.71333027
12	0x3f025bb2	0.50921166
13	0xbe1fc4d7	-0.15602432
14	0xbec0a689	-0.37627056
15	0xbf26a65e	-0.65097606

net.5.running_mean f4 [16]
0	0xc04ba478	-3.1819134
1	0x3f83b026	1.0288131
2	0x4036f533	2.8587158
3	0xc01bec29	-2.436289
4	0xc0f2aac7	-7.583347
5	0x4087c826	4.243182
6	0xbd05daac	-0.032679245
7	0xc01d310a	-2.456118
8	0xc0b91bc7	-5.784641
9	0xc088eecd	-4.2791505
10	0xc018d81c	-2.3881903
11	0xc090033c	-4.500395
12	0x404c65d6	3.1937156
13	0x3e92fb8f	0.2870755
14	0xc07f79df	-3.9918134
15	0xbf94b9c4	-1.1619191

net.5.running_var f4 [16]
0	0x42295cf9	42.340794
1	0x4252873d	52.63207
2	0x424c2506	51.036156
3	0x41b4a070	22.578339
4	0x42432f0d	48.795948
5	0x4193edd7	18.491133
6	0x425db581	55.42725
7	0x41c3b5c1	24.463747
8	0x42552ef1	53.29584
9	0x42225fb7	40.59347
10	0x417dc68f	15.860976
11	0x42601723	56.022594
12	0x423d9adf	47.40124
13	0x41a17b06	20.18507
14	0x423f48e9	47.8212
15	0x4104b914	8.295185

net.8.weight f4 [8, 16]
0	0x3e99d1b9	0.30042818
1	0xbeda5a7e	-0.42647165
2	0xc02fb4e5	-2.745416
3	0xbef739f7	-0.4828641
4	0x3f84a4dd	1.0362812
5	0xbe7a6218	-0.24451482
6	0xbf64947a	-0.8928906
7	0xbd704664	-0.05866088
8	0x3e8e230c	0.27761114
9	0x3f53b9f1	0.827056
10	0x3f451d12	0.7699748
11	0xbda4e9f9	-0.08052439
12	0xbfe644f6	-1.7989795
13	0x3e2005d9	0.1562723
14	0x3f43d711	0.7650004
15	0x3e47187c	0.19442934
16	0x3db4ec92	0.08834185
17	0x3d06e380	0.032931805
18	0x3e2100cc	0.1572296
19	0xbf8d290c	-1.1028152
20	0xbf9ee8f8	-1.2414846
21	0xc015a9b6	-2.3384833
22	0x3e915a51	0.28389218
23	0xbf1479f0	-0.5799856
24	0xbfc0ab56	-1.5052288
25	0xbeea79d7	-0.4579608
26	0xbee7f85e	-0.45306677
27	0xc00840a0	-2.1289444
28	0x3e99204c	0.29907453
29	0xbfaa3f29	-1.3300525
30	0x3df1f97d	0.11815164
31	0xbf2e3f83	-0.6806566
32	0xbf9eb1c3	-1.2397999
33	0x3c417158	0.011806808
34	0xc0041f6e	-2.0644183
35	0xbefc155e	-0.49235052
36	0xbcbf0ded	-0.02332207
37	0xbe03c840	-0.12869358
38	0xbe0af08f	-0.13568328
39	0xbde70102	-0.11279489
40	0x3e7dedb9	0.24797715
41	0xbed81cb5	-0.42209402
42	0xbed64a93	-0.4185377
43	0xbf118075	-0.56836635
44	0xbf3255b8	-0.69662046
45	0xbe3c0333	-0.18360595
46	0xbe38f631	-0.18062665
47	0xc006c9fc	-2.1060781
48	0x3f92c6c8	1.1466913
49	0x404193c7	3.0246446
50	0x3e9d48a5	0.30719486
51	0xbfa5b62f	-1.2946223
52	0x3b74b665	0.003734016
53	0xbf24288c	-0.6412437
54	0xbfc94eb1	-1.572714
55	0xbfc78b88	-1.5589457
56	0xbf0dc206	-0.5537418
57	0x3f8296a5	1.0202223
58	0x3e7d269e	0.24721763
59	0xbe9958e9	-0.29950646
60	0xbfdca59b	-1.7238039
61	0x3fbdaae4	1.4817777
62	0x3f85b02a	1.0444386
63	0xbf992328	-1.1963854
64	0xbf1a0110	-0.6015787
65	0xbeb247a3	-0.3482028
66	0xbe122b72	-0.14274386
67	0xbf93ec18	-1.1556425
68	0xbf16c98b	-0.5890128
69	0x3c26e7cc	0.010187101
70	0xbf016605	-0.50546294
71	0xbe745c3a	-0.23863307
72	0xbd262bad	-0.040568996
73	0x3d679917	0.056542482
74	0xbedea722	-0.43486887
75	0xbf77517f	-0.9660873
76	0xbeb87bde	-0.36032003
77	0xbe4cc097	-0.19995342
78	0xbeb7a6f2	-0.35869557
79	0xbe90b626	-0.28263968
80	0xc079be75	-3.9022496
81	0xbd8d723f	-0.06906556
82	0x3ea91efa	0.33031446
83	0xbff055d2	-1.877619
84	0xbee29a6e	-0.44258446
85	0xbf530ff2	-0.82446206
86	0x3e10cdb9	0.14140977
87	0xc0273a5f	-2.6129377
88	0xc0009639	-2.0091689
89	0xbfe3d189	-1.779832
90	0xbfe02461	-1.7511102
91	0xc02923c5	-2.6428082
92	0x3e41872e	0.18899223
93	0xbfa1067e	-1.2580106
94	0xc033399e	-2.8003917
95	0xbfec89d6	-1.8479564
96	0x3eedab88	0.4641993
97	0xc058ebba	-3.3893876
98	0xc06a0ff1	-3.657223
99	0xbe91d3fa	-0.28482038
100	0x3f62e741	0.88634115
101	0xbe8b1d8d	-0.27170983
102	0xc0bb182c	-5.8467007
103	0xbf093971	-0.53603274
104	0x3f2672ae	0.6501874
105	0xbf266b47	-0.6500744
106	0xbe6484e5	-0.2231632
107	0x3e96bebd	0.29442397
108	0xc0d1a73e	-6.5516653
109	0x3e0e4d1f	0.13896607
110	0xbeb6ed6c	-0.35728014
111	0xc0040915	-2.0630543
112	0x3f102f9f	0.56322664
113	0xbf1055c9	-0.563809
114	0xc09d45b0	-4.914757
115	0xbed65a11	-0.4186559
116	0x3e354740	0.17702961
117	0xbeb7a881	-0.35870746
118	0xbf891416	-1.0709255
119	0xbedd6a15	-0.43244997
120	0xbdaf6a7e	-0.08565234
121	0x3f018c88	0.5060506
122	0x3f0b834e	0.5449723
123	0xbe81d1d0	-0.25355387
124	0xc07c1cbd	-3.939254
125	0xbd741cb6	-0.059597693
126	0x3f4b898d	0.7950676
127	0xbef51952	-0.4787088

net.8.bias f4 [8]
0	0x4013e1e9	2.3106635
1	0x40169dfa	2.3533921
2	0x3f77d5c0	0.9681053
3	0xbfdd331b	-1.7281221
4	0xbe0540f5	-0.1301306
5	0x3fc83714	1.5641809
6	0x3fa280d9	1.2695571
7	0x4009c23f	2.1524808

net.10.weight f4 [1, 8]
0	0xbf222f05	-0.63352996
1	0x3f8128a6	1.009053
2	0xbe77bbff	-0.24192809
3	0x3f00c6c7	0.5030331
4	0x3ce58be1	0.028020801
5	0x3f8b7891	1.0896169
6	0xbef2eb45	-0.4744512
7	0xbf1043d7	-0.56353515
