old_work/Classification_AB/NeuralNetwork/best_Model_2.pth (torch, 5372 bytes, 7 tensors)

net.0.weight f4 [16, 6]
00000000: f119 4c3e 3662 923d 6c98 6bbe 85fe 843e
00000010: 1f69 8ebe c78d 72be 1102 8d3e a4f7 09be
00000020: 6a65 253e 769b f93e 989a 47be adee 3dbe
00000030: bbd3 9040 5162 68bf 6dd6 40bf 756e 1bbf
00000040: cddf 34bf 920e 993f bf28 2abf 4371 1f3f
00000050: 8149 56c0 cc67 503b 152e f140 5562 d93f
00000060: 55c0 2d3f 0a56 983e a6f5 1d3d e2d2 b1bd
00000070: a900 a13e 2638 67c1 62ba 48be 7903 a4c0
00000080: 635a b13f a7cb 9bbf 02ce 2f40 51b1 3a3f
00000090: 7af9 c5bc bc39 943e 2708 c4be 7cdb c43e
000000a0: c0d7 55be 30d7 bdbe eaf7 533e 75f4 2940
000000b0: fd97 edbf a3e5 39bf a613 16bf b08f 21c0
000000c0: 8786 2cbd fca5 09be 0793 ecbd a8c0 833e
000000d0: 9620 043e 2489 9ebb 5281 6cbf a2e7 e83e
000000e0: 1522 5b3f cadc d73e 3a87 eb40 a70b 55c0
000000f0: 0d45 6a3f 4646 cfbd 2139 40bf b98d 9bbf
00000100: fda1 7b3e bbbb 87bf 744f d3bc e1e2 5dbe
00000110: 00de bfbe 3e13 073e cc96 1f3e 53f8 fdbd
00000120: 27ed b13e 5347 a13f f777 1740 b0eb 8b3e
00000130: c1ca 3740 df33 e8bf 6dfc 63bf b357 d43e
00000140: 9849 3abf aa15 983d b30e 1dc1 5d37 b3be
00000150: 42e2 8b3e 203c 2840 3eca 9a3f 2820 303f
00000160: a31e 8ebe 4d47 efbf 3b62 b23d fe30 fcbe
00000170: 13ca a2bd bbc5 503d e6f3 71be e6d9 bebe
0.19931771 0.071476385 -0.23007363 0.25975433 -0.27814576 -0.23686896 0.2754064 -0.13473374
0.16151968 0.4875142 -0.19492567 -0.18548079 4.525846 -0.9077502 -0.7532719 -0.6071542
-0.7065399 1.1957572 -0.66468424 0.622822 -3.3482363 0.003180015 7.5368752 1.6983134
0.678716 0.29753143 0.038564347 -0.08682801 0.31445816 -14.451208 -0.1960235 -5.125424
1.3855709 -1.2171525 2.7469487 0.72926813 -0.024166811 0.28950298 -0.3828747 0.38448703
-0.20883083 -0.37078238 0.2070004 2.6555455 -1.8562008 -0.7261602 -0.5862373 -2.524395
-0.042120483 -0.13442224 -0.11551481 0.25732923 0.12903056 -0.004838126 -0.9238483 0.45489222
0.8559888 0.42160636 7.360257 -3.3288362 0.91511613 -0.101208255 -0.7508717 -1.2152625
0.24573512 -1.0604166 -0.025794722 -0.21668579 -0.3747406 0.13190934 0.15584868 -0.1240088
0.34751245 1.2599891 2.366697 0.27328253 2.87175 -1.814083 -0.89057046 0.4147316
-0.72768545 0.07426007 -9.816089 -0.35003176 0.2732106 2.6286697 1.209297 0.68799067
-0.2775775 -1.8693634 0.08710142 -0.49256128 -0.07948699 0.05096982 -0.23628196 -0.37275618

net.0.bias f4 [16]
00000000: 4a21 a5be dd10 f03d 9d9c 2b40 8697 df3f
00000010: 7b7b 2440 3e72 0cc0 f0ed 62be daba 53c0
00000020: d054 3abe 0f92 f2be c9c1 0740 75cb 6e3e
00000030: f093 9abf b9b5 2abf a291 06c0 4ab1 89be
-0.3225196 0.117219664 2.681434 1.7468116 2.5700366 -2.1944728 -0.22161078 -3.3082795
-0.18196416 -0.4737706 2.1212027 0.233198 -1.2076397 -0.66683537 -2.1026387 -0.26893073

net.2.weight f4 [16, 16]
00000000: 1ab8 13be 3995 6cbe 200f 4b3c 3680 9cbe
00000010: d268 45be 95f7 61be be61 5a3e 1460 a9bd
00000020: 7ce0 313c 25cf 93bd 4bb5 19bd 0a4a 513e
00000030: 49bf cdbd 63bf 28be be52 d63d ca63 69be
00000040: 3c22 9fbd 050f 13be 448c 09be 77af 97bf
00000050: c31a eebf cb7c 0b40 60d4 19bc 0c70 38bf
00000060: 4e6c f73d 569a aabf 8d6c aa3f f60e 683e
00000070: b1f5 dfbf e416 90bf 40de 77c0 798a b03a
00000080: 4c8d 323e 30ff 673d 2679 11c0 8f8e d43d
00000090: 2aee 1b3e 136c 183e 405d 303c 64af a1be
000000a0: b8ee 153e b5a0 8b3f 005d 493f f8ee 30bd
000000b0: 99fc 063f 1ae5 fdc0 675d 58c0 28cd 953d
000000c0: 2cfb 2fbe f9ce eebc 4275 81be 4b8d 4140
000000d0: 6300 8ec0 5ad4 6ac0 6cf6 cbbd 5ee4 11c0
000000e0: 971d a93e c492 b5bf 9467 7a3e 203a 593c
000000f0: 9131 9ebe b183 d6bd 871e 68bf 3c59 313e
00000100: 70ff 45be 4cd4 813d e9d6 c43f 90e9 7fc0
00000110: 8ee6 3f3f 4735 07bf 0c57 303e e7e6 ffbe
00000120: 8c7e 5bbc 0615 3ac0 3033 743f 881d 993d
00000130: 7db1 84be ff7a 84c0 4742 5ac0 802d ac3d
00000140: fe6d 383e 5d3b 49be 7f91 ad3f 1525 9cc0
00000150: ea7b 6b3d ac04 9ebf d05f a23c bb40 c63e
00000160: aa71 753e 9243 43c0 58b7 7c3f 3089 40be
00000170: db2d 483d 0aec 9ac0 8f17 b73d b457 503e
00000180: 0879 1dbe 144c bb3d 935a a0bc 704f 1bbe
00000190: 9c15 30be 0282 93be 7eab 713e b3eb 07be
000001a0: ec2c 80bd 54ed a3be eaac 57bd 50e5 3b3e
000001b0: 6882 33be 9ce0 3fbe f3d5 e1be 4879 ce3d
000001c0: 7e95 2d3e e174 193e 4bfd 0a3f ab6b 1fc0
000001d0: 1086 ecbf a063 1640 18d1 0fbe 004d c5bf
000001e0: dc4e 8e3e 4976 5f3f 34da 01c0 8c93 b03d
000001f0: 9a03 e7be 8e90 14bf da19 86bf 8437 89bb
00000200: 268a 7cbe 8849 25be d9cb 09c0 d176 91c0
00000210: 1f19 673f a491 2cbf 46e8 793e 38f9 773e
00000220: 7db9 163c 282a 11c0 ab6b 053f 1612 7fbe
00000230: 4f2d a7bf c763 b33f 912f 42c0 eddd 39be
00000240: 940a f23d b951 15be d2e3 43bf 683a 403f
00000250: b2dc 12bf 7873 00c0 8ab7 0cbe 09b0 7cbe
00000260: f1fe 1bbe 99ab b33f 590a 8fc0 9afe 30be
00000270: 52cf 513e 52f1 7f3f 7b1b c4bf 1136 a73c
00000280: 40e1 ee3b 94d6 9b3d 4889 9ec0 8e06 7dbf
00000290: ecef 29c0 10b9 22c0 d016 0bbe 99e4 2ec0
000002a0: 2c22 a53e f889 05bf 96f8 fbbd 1ead 393e
000002b0: 3db1 5dbf ead3 483f 47e8 a5bf 708f c0bc
000002c0: 8e39 4ebe f7f7 80bd 9d8b b0bf 9e5e 53bf
000002d0: b0cc 40c0 72b9 0640 ccf2 ed3d d292 e53f
000002e0: e3e7 35bd 0ed1 e7be 0a68 1d3f e447 e13d
000002f0: 74c1 cfc0 ef38 e8be 0a8d 1140 b0d7 40bd
00000300: 1288 7ebe 50f7 f73c 34df debd 7c93 ef3c
00000310: d49b 923d 2e9d f2be 98be c0bd d86e 053d
00000320: 1c93 b43d 8957 9bbe f8d3 6bbe 2885 743d
00000330: 646c 61be 6e20 36be 3fa9 10bf cc4f 393e
00000340: 98dd 123d 6a5e 34be 9921 f23f c5ff 06c0
00000350: 9a9d b33f 8d11 933f 0085 633c c964 89c0
00000360: 80a4 fabd 9fbb 71bf 803d 1ebf 6c4a 7bbe
00000370: 677d 97bf 97bd 6cbf 23f3 a7bf f8fd 5bbe
00000380: b89e 3abe 0b78 53be c60a b0bf 262f 37c0
00000390: 6fbf 433f 12bd cabd 986f 6cbd 0b7a a83e
000003a0: 7e73 8e3e 4fb0 24bf 90c0 d93f 6671 5ebe
000003b0: 5700 143e de15 88bf c2c9 1fbe a7e5 2d3e
000003c0: 00f3 e13c 5037 9cbe 9833 0ebe 7a20 e6bd
000003d0: fabe 58be 2b0e 1ebf a0a4 e7bd d375 afbe
000003e0: 4499 493e 70a0 d9be 02aa a0bd cc07 773e
000003f0: ca9b 0cbe 52ba d5be 4633 1fbf d87f 1f3d
-0.14425698 -0.23103799 0.012393743 -0.30566567 -0.19278267 -0.22067101 0.21326348 -0.082702786
0.010856744 -0.07217244 -0.03752641 0.204384 -0.100462504 -0.16479258 0.104650006 -0.22791973
-0.077702016 -0.14361198 -0.13432413 -1.1850423 -1.8601917 2.1794918 -0.009389013 -0.7204597
0.12081204 -1.332835 1.3314377 0.22661957 -1.7496854 -1.1256986 -3.87294 0.0013469002
0.17436713 0.05663985 -2.2730193 0.103787534 0.15227571 0.14884977 0.01076442 -0.31579125
0.14641845 1.0908419 0.7865753 -0.04319665 0.52729183 -7.9342165 -3.3807008 0.07314521
-0.17185658 -0.029151427 -0.25284773 3.0242488 -4.437547 -3.669211 -0.099591106 -2.2795634
0.33030388 -1.4185414 0.24453574 0.013258487 -0.3089719 -0.10474337 -0.9067158 0.17319196
-0.19335723 0.063393205 1.5378085 -3.9986305 0.74961174 -0.5281567 0.17220706 -0.49980852
-0.01339687 -2.9075332 0.95390606 0.07476336 -0.25916663 -4.140014 -3.4102952 0.08407116
0.18010709 -0.19651552 1.3560027 -4.8795266 0.05749122 -1.2345176 0.019821078 0.3872126
0.2396914 -3.0509992 0.9871726 -0.18802333 0.048871856 -4.8413134 0.0894004 0.20345956
-0.15378201 0.0914537 -0.01957444 -0.15167022 -0.17195743 -0.28810126 0.23600575 -0.13273506
-0.06258568 -0.32017004 -0.052655138 0.18349195 -0.17530215 -0.18738025 -0.44108543 0.10081726
0.16951558 0.14985992 0.54292744 -2.4909465 -1.8478413 2.3498306 -0.14044607 -1.5414124
0.2779454 0.87289864 -2.028943 0.08621892 -0.45119935 -0.5803307 -1.0476639 -0.004187526
-0.24662074 -0.16141331 -2.1530669 -4.545754 0.90272707 -0.6740973 0.24405012 0.24216163
0.009199497 -2.268198 0.52117413 -0.24909243 -1.3060702 1.4014825 -3.0341532 -0.18151064
0.11818424 -0.14581956 -0.765195 0.7508912 -0.57368004 -2.0070477 -0.1374189 -0.24676527
-0.15233971 1.4036742 -4.470013 -0.17284623 0.20489243 0.999776 -1.5320886 0.020411523
0.0072900355 0.07609287 -4.954258 -0.98838127 -2.6552687 -2.5425453 -0.13582921 -2.7327025
0.32252634 -0.5216365 -0.123032734 0.18132445 -0.8659857 0.78448355 -1.296151 -0.023505896
-0.20139143 -0.062972955 -1.3792607 -0.8256625 -3.0124931 2.1050687 0.116185755 1.7935431
-0.044410598 -0.45276684 0.61486876 0.1100004 -6.492365 -0.45355937 2.2742333 -0.047080696
-0.24856594 0.030269295 -0.10882416 0.02924513 0.07158628 -0.47385544 -0.09411353 0.032576412
0.088171214 -0.30340222 -0.23030078 0.0596973 -0.22014004 -0.17785808 -0.5650825 0.18096846
0.03585586 -0.17614141 1.8916503 -2.109361 1.4032471 1.1489731 0.01388669 -4.293553
-0.12238407 -0.9442691 -0.6181259 -0.24540108 -1.1835145 -0.9247679 -1.3121074 -0.214836
-0.18224609 -0.20651262 -1.3753288 -2.8622527 0.7646398 -0.098993436 -0.05772361 0.3290561
0.2782249 -0.64331526 1.701189 -0.21722946 0.14453255 -1.0631673 -0.15604308 0.16982137
0.027581692 -0.3051095 -0.13886869 -0.11236663 -0.21166602 -0.6174037 -0.113106966 -0.3426958
0.19687372 -0.42505217 -0.078449264 0.24124068 -0.13731304 -0.41743714 -0.6218761 0.03894028

net.2.bias f4 [16]
00000000: 6ffc 8cbe 55c1 3040 3e0d 66bf da11 cc40
00000010: 112c 6b40 834b 11bf c685 a1be fedb 813e
00000020: ea93 cf3f 8638 2ebe 3765 8a3f d5a3 a73f
00000030: 7028 81be 5ec8 793a ef27 7340 fed5 30bf
-0.27536342 2.7618 -0.89863956 6.377179 3.6745646 -0.56755847 -0.31547374 0.25363153
1.6217015 -0.1701375 1.0812138 1.3096873 -0.25226164 0.0009528453 3.7993124 -0.69076526

net.4.weight f4 [8, 16]
00000000: ab6e bbbd 9e0d e9bd a408 a9bf f2e0 953e
00000010: eda1 813f f182 12c0 ab30 443e 0ed1 843f
00000020: 1af4 d3bf 2cdf 6abf aae8 acbf e6f5 743e
00000030: e6df 223f 90cb 4c3f 45de 283e 045c e83c
00000040: 5477 27bd 8616 4a3f 431f 343f 971b cdbf
00000050: 2088 79c0 df45 f2bd c4b3 9ebe e3aa 04bf
00000060: 5f26 723f b302 41c0 2b1d b3bf a26d 47bf
00000070: 8017 9cbd c041 af3e d6a5 3d3f 31d1 3cbe
00000080: 617e 12be 4446 2fbf d398 023c 4260 eebe
00000090: efc8 a33e ac54 803c ab9d 87be 7094 7ebd
000000a0: 39c7 82be 0b12 90bf 36e1 26bf d8f2 bbbf
000000b0: 12bc 20be 496b 0f3e b7a2 fa3e 6d96 72be
000000c0: 2a30 803e 12e1 f7bf c64c a7be 5ad1 9ebf
000000d0: fa17 c1bd 2df5 79be 07b8 e7be 4db4 843a
000000e0: 9544 eb3e fcbe afbf 5fa2 c5be d923 f6bf
000000f0: 7e25 3c3e a406 53be bffa 25bf bdb8 0bbe
00000100: 80ae d83b e861 12c0 b335 0bbf 9801 aa3f
00000110: 890d 9dbe 30eb a3bf 8625 1c3e 06b8 b2bf
00000120: bafe aebe f2b4 85bf 507e 6fbf f6da 11bf
00000130: 6471 ec3d 27aa cb3e ed0f b4be d0ca f73d
00000140: 6819 debd 5d6f e9be 4078 fdbb 2290 06bf
00000150: 4b35 ecbd 00ca d4ba 02da 023e 3d7f c2be
00000160: 6f06 8dbe 084e 9cbe 80f8 53bb 2ce6 4abd
00000170: 2a6d 1dbe 8d91 c0bd 78d8 00bf ccd1 88bd
00000180: b9ea 41bd b42a 19c0 0d31 dabf 8f0e 8ec0
00000190: 95f3 173e 2ad4 57be dbda 30be a4ae 19bf
000001a0: f1fb e8bf 9fca 943e 3342 ef3e ae8b 75bf
000001b0: 22ea e1be 7aab 9dbf feca 613e 97d5 37be
000001c0: aa3b 5ebe 263f 933f 7f74 4c3e f669 883e
000001d0: 2bfd 5ebf 28da d4bf 461e 1bbc e597 0140
000001e0: bd1e b03e 41ad 003f 2728 a4be 8223 96be
000001f0: 4ba7 8d3e 6eb4 833f bae4 543f e998 c0bc
-0.091519676 -0.113795504 -1.3205762 0.29273182 1.0127541 -2.289242 0.1915919 1.0376298
-1.6558869 -0.91746783 -1.3508503 0.23921928 0.6362289 0.7999811 0.16491039 0.028364189
-0.040885285 0.7894062 0.703602 -1.6024045 -3.8989334 -0.11829733 -0.30996525 -0.5182325
0.945898 -3.0157897 -1.3993276 -0.7790166 -0.0762167 0.3422985 0.7408117 -0.18439175
-0.14306022 -0.6846659 0.007971006 -0.46557814 0.31989238 0.015665375 -0.2648748 -0.06215328
-0.2554262 -1.1255506 -0.65187395 -1.4683485 -0.15696743 0.1400577 0.48952267 -0.23690195
0.25036746 -1.9365561 -0.3267576 -1.2407639 -0.09428401 -0.24409933 -0.4525759 0.0010124535
0.4595076 -1.3730159 -0.38600442 -1.922969 0.18373677 -0.20608002 -0.64835733 -0.13644691
0.006612599 -2.2872257 -0.54378814 1.3281736 -0.3067439 -1.2806149 0.15248689 -1.396241
-0.34178716 -1.0445845 -0.9355211 -0.5697473 0.11545065 0.39778253 -0.351684 0.1209923
-0.108446896 -0.45592776 -0.007735282 -0.5256368 -0.11533602 -0.0016234517 0.12778476 -0.379877
-0.2754397 -0.30528283 -0.0032344162 -0.049535915 -0.15373674 -0.094027616 -0.50330305 -0.066806406
-0.04734299 -2.3932314 -1.7046219 -4.439277 0.14839013 -0.21077028 -0.17270987 -0.60032105
-1.8201886 0.29060838 0.46730193 -0.9591626 -0.44123942 -1.2317955 0.22050092 -0.17952572
-0.21702448 1.1503646 0.19966315 0.26643342 -0.87105054 -1.6629076 -0.009467667 2.024896
0.3439845 0.50264364 -0.32061884 -0.29323965 0.27666697 1.0289438 0.8316151 -0.023510413

net.4.bias f4 [8]
00000000: e35e 3d40 520f 5040 9268 a83e 584d 82bf
00000010: c975 33c0 cb9e 50bf 30a1 c740 2af6 2bc0
2.9589164 3.250935 0.3289228 -1.0179853 -2.804064 -0.814923 6.238426 -2.6868997

net.6.weight f4 [1, 8]
00000000: f18b 483e 62af 91be e2e6 d5bd 50d8 183c
00000010: 13e1 5f3e 5688 843e 7591 a7be 1629 4e3e
0.19584633 -0.2845412 -0.10444428 0.009328917 0.21863203 0.25885266 -0.32728162 0.2013286
