old_work/Classification_AB/NeuralNetwork/best_Model_4.pth (torch, 5372 bytes, 7 tensors)

net.0.weight f4 [16, 6]
1.6330457 -4.3293805 0.93282795 -0.14672588 0.016004864 -0.42406297 3.446631 -0.38891488
0.62994784 -0.31021217 1.1171952 -1.1459115 0.091335826 0.0909862 -0.33294898 0.39181828
0.10057253 -0.18154286 0.14159302 -0.47025588 -0.26517132 0.20243962 0.19975764 -0.5602973
0.14239967 0.18278518 -0.31913486 0.2507397 -0.15191095 -0.24549654 0.103932686 0.30955622
-0.3800672 0.3346484 0.044870477 0.31353894 -0.94673645 0.27502507 0.42442492 -0.31560844
-0.087971866 -3.3064044 -0.35186026 -1.1131712 0.07032954 0.6087943 -0.23144013 4.9554486
-0.44994226 0.46234652 0.27094978 0.22991394 -7.794275 -0.17899193 0.01805448 -0.3428752
-0.17798969 0.007092776 0.2742645 -0.31256866 0.13774386 0.58714 -0.9227781 -0.008415573
0.1547802 -1.3513378 -1.4221307 1.2657382 -7.177408 1.1059486 -0.045570344 0.69660574
0.07226803 0.20419845 -0.37579498 0.30654994 -6.6051 -1.0470593 0.5696585 -2.9479995
-0.77831775 -0.79453623 -0.04073749 1.6851525 -0.44060203 0.35780236 0.29355097 0.17683083
8.432352 -0.38807988 -0.46619314 -3.377627 -0.22233962 -0.87405175 0.14922512 1.3547757
00000000: a407 d13f 498a 8ac0 d0cd 6e3f 4f3f 16be
00000010: a21c 833c c81e d9be 9a95 5c40 da1f c7be
00000020: 4344 213f 21d4 9ebe 4100 8f3f 3aad 92bf
00000030: 470e bb3d f956 ba3d 4a78 aabe 689c c83e
00000040: f8f8 cd3d 5fe6 39be c3fd 103e 61c5 f0be
00000050: 89c4 87be 554c 4f3e 448d 4c3e a56f 0fbf
00000060: 38d1 113e 0a2c 3b3e a565 a3be f460 803e
00000070: 8b8e 1bbe 7263 7bbe a9da d43d 277e 9e3e
00000080: 2b98 c2be 0957 ab3e 1bca 373d 2d88 a03e
00000090: 525d 72bf 16d0 8c3e 394e d93e 6e97 a1be
000000a0: 982a b4bd 219c 53c0 0727 b4be 657c 8ebf
000000b0: ef08 903d f1d9 1b3f a4fe 6cbe 0993 9e40
000000c0: d55e e6be afb8 ec3e eeb9 8a3e 8f6e 6b3e
000000d0: b36a f9c0 a949 37be fde6 933c 578d afbe
000000e0: ee42 36be 846a e83b 666c 8c3e 0009 a0be
000000f0: ba0c 0d3e cf4e 163f 303b 6cbf 79e1 09bc
00000100: b37e 1e3e a3f8 acbf 6108 b6bf b603 a23f
00000110: 54ad e5c0 b98f 8d3f f8a7 3abd c154 323f
00000120: 4301 943d 6619 513e 3368 c0be 1df4 9c3e
00000130: fb5c d3c0 0a06 86bf 24d5 113f 06ac 3cc0
00000140: d53f 47bf ba66 4bbf 5bdc 26bd 14b3 d73f
00000150: 9796 e1be df31 b73e 504c 963e 2413 353e
00000160: eaea 0641 68b2 c6be deb0 eebe 0a2b 58c0
00000170: ffac 63be dbc1 5fbf 78ce 183e 4a69 ad3f

net.0.bias f4 [16]
1.657742 2.5108225 -0.26938412 -0.054017816 0.10503393 0.24828526 -0.794132 2.9754076
-1.1095947 0.07368698 -0.38328096 1.527636 -1.2905711 1.3984373 -1.0199289 -1.2017362
00000000: e430 d43f 51b1 2040 b7ec 89be c941 5dbd
00000010: 071c d73d 7e3e 7e3e 3c4c 4bbf 146d 3e40
00000020: 3307 8ebf 33e9 963d 673d c4be 9489 c33f
00000030: 6f31 a5bf feff b23f 088d 82bf 7ed2 99bf

net.2.weight f4 [16, 16]
2.9317086 -0.6741588 0.17455706 -0.027508702 0.09448442 -0.076282084 1.0766536 -0.01907597
-1.3966695 -0.076542646 0.2594732 -3.3808677 -0.036941923 -1.0482278 -1.4045067 1.2606769
1.0997876 -0.47709513 0.17420968 -0.21018115 0.18624851 0.13483813 0.31190985 -1.0933928
0.6237082 -0.08397332 0.32403767 -12.551891 -0.1023731 1.1198062 0.6957729 0.62134326
0.42855793 -0.0018637672 -0.21007001 -0.011511042 0.13879636 -0.07590997 -0.94563997 0.5888139
-1.0127287 -0.23008958 -0.48978665 -3.2981188 -1.4959362 1.5566059 -0.8590681 1.3895054
0.15307894 1.2736472 0.07118547 0.07529066 0.043255806 0.12689057 -0.349956 0.16735233
-2.2679634 -0.16275498 0.26349694 -0.33937347 -0.80345434 0.27102473 -2.5292878 -0.23314159
1.8862063 -0.9535924 -0.10790232 0.26696214 -0.20069066 -0.09187174 -0.81177336 -0.13903843
-0.74446815 0.01670456 -0.28822458 -1.59504 -0.75516254 -0.16348542 -1.0631893 0.38081414
-0.54843056 0.22174141 0.156656 -0.30316976 -0.13611332 0.07293442 0.8528532 -5.922312
0.2025823 0.14060333 0.07420283 -5.9277453 0.7033292 -2.7493477 0.31619522 -1.2444181
0.11837271 -0.10661769 0.08873373 -0.104185015 0.094218284 0.22616252 -0.29788262 -0.0062591997
-0.09967521 -0.21865359 -0.16175358 -0.031985722 -0.4590988 -0.23384237 -0.41433886 -0.17015968
-6.7563143 0.28996447 -0.22049844 -0.23681287 0.0322724 0.021210015 0.0892152 -0.89574486
1.3994131 -0.14943007 -0.37688142 -0.7947002 0.8063859 -1.1484629 1.3483409 0.22872502
-3.1635897 0.48976666 -0.18255174 -0.14686167 -0.052092344 -0.012484223 -3.4391963 1.587825
1.0204552 -0.15032601 -0.17623739 0.69602484 0.9513488 -0.88704044 1.0295814 -1.7192479
-3.1850011 1.8113227 0.15232006 0.085057795 -0.2118085 0.15220153 -0.5233 0.041444402
-2.09757 0.05579239 0.6442126 0.64774936 -0.7554465 -0.2614111 -2.7135546 -0.32533312
-1.8271787 -0.67617464 0.1930674 0.030644713 0.10571763 -0.04455459 -0.024435064 -0.92829525
-0.08689831 -0.15164307 -0.033191573 -1.6195865 0.18320528 -1.8664612 -0.7136707 -2.843113
0.98208797 1.4278297 -0.22062802 -0.0030809443 -0.07712507 -0.21787715 -0.3677015 -0.020190498
-4.056122 0.2141132 -0.19485128 1.3311352 -2.2358272 0.5289583 -5.060385 -0.6639235
-0.98320425 0.019710286 -0.0032638907 -0.39493218 -0.09607938 0.18384871 -0.501403 -0.0048027504
1.2279538 -0.01145938 0.03835547 3.899628 0.5278277 -1.0951848 1.2801638 -0.9257746
0.025594741 -0.2631925 0.115627736 0.10616833 -0.033134907 0.11684576 -0.11063214 -0.22626781
-0.35082236 -0.018953413 -0.51350033 0.0061139166 -0.48519212 -0.22027764 -0.33069456 -0.22541252
-0.18245949 -0.30453265 0.2199809 -0.08413696 0.17495972 0.122065514 -0.15229584 -0.24014391
-0.19652471 0.23118427 -0.056894556 -0.19739062 -0.30808255 -0.036165852 -0.1049054 -0.13666382
0.036701646 -0.03214251 0.09154701 0.058377832 0.06401381 0.05625394 -0.25702378 -0.29943156
-0.27788734 -0.07385522 -0.24544156 0.17214707 -0.07646145 -0.22219062 0.038708113 -0.2165379
00000000: 1da1 3b40 ac95 2cbf 16bf 323e ee59 e1bc
00000010: 0c81 c13d c839 9cbd c9cf 893f 3545 9cbc
00000020: 11c6 b2bf 64c2 9cbd acd9 843e 2360 58c0
00000030: 6a50 17bd 542c 86bf e0c6 b3bf dc5d a13f
00000040: d7c5 8c3f d045 f4be 0664 323e ba39 57be
00000050: eeb7 3e3e 0213 0a3e a6b2 9f3e 4cf4 8bbf
00000060: 57ab 1f3f 34fa abbd 44e8 a53e 8cd4 48c1
00000070: fda8 d1bd cf55 8f3f 2c1e 323f 5a10 1f3f
00000080: f26b db3e a649 f4ba 981c 57be cf98 3cbc
00000090: a220 0e3e b076 9bbd 7615 72bf 82bc 163f
000000a0: 18a1 81bf 9a9c 6bbe 51c5 fabe 6114 53c0
000000b0: d67a bfbf dd3e c73f e3eb 5bbf 50db b13f
000000c0: bac0 1c3e df06 a33f b0c9 913d fd31 9a3d
000000d0: 002d 313d 9aef 013e 6f2d b3be 695e 2b3e
000000e0: 5026 11c0 3ea9 26be 12e9 863e 5cc2 adbe
000000f0: 2faf 4dbf c1c3 8a3e dadf 21c0 abbc 6ebe
00000100: 356f f13f a21e 74bf e4fb dcbd 43af 883e
00000110: da81 4dbe 4027 bcbd 61d0 4fbf 1760 0ebe
00000120: 7795 3ebf 00d8 883c 2c92 93be 452a ccbf
00000130: 5552 41bf b968 27be 9616 88bf 12fa c23e
00000140: f265 0cbf 2e10 633e 6e6a 203e 1139 9bbe
00000150: 4a61 0bbe a45e 953d 9654 5a3f 9483 bdc0
00000160: bc71 4f3e 52fa 0f3e a7f7 973d 17b0 bdc0
00000170: 620d 343f 50f5 2fc0 57e4 a13e 1849 9fbf
00000180: 646d f23d 605a dabd 08ba b53d f45e d5bd
00000190: 84f5 c03d 2697 673e 1284 98be f919 cdbb
000001a0: 8422 ccbd bae6 5fbe bba2 25be 7603 03bd
000001b0: ff0e ebbe 6074 6fbe 3924 d4be 573e 2ebe
000001c0: ba33 d8c0 3976 943e 58ca 61be 137f 72be
000001d0: 1030 043d a0c0 ad3c 75b6 b63d 894f 65bf
000001e0: f81f b33f 3204 19be 9af6 c0be 7971 4bbf
000001f0: 4e6f 4e3f d500 93bf 6f96 ac3f e436 6a3e
00000200: 4178 4ac0 b2c2 fa3e d8ee 3abe e862 16be
00000210: c85e 55bd a08a 4cbc cb1b 5cc0 d93d cb3f
00000220: 479e 823f 10ef 19be 9377 34be af2e 323f
00000230: 988b 733f 1515 63bf 53c9 833f 5110 dcbf
00000240: 0fd7 4bc0 6cd9 e73f caf9 1b3e c832 ae3d
00000250: 54e4 58be b8da 1b3e fdf6 05bf 9bc1 293d
00000260: 963e 06c0 9086 643d 1eeb 243f e7d2 253f
00000270: f164 41bf add7 85be e1aa 2dc0 1092 a6be
00000280: fee0 e9bf c819 2dbf 76b3 453e 9f0a fb3c
00000290: 7c82 d83d e07e 36bd 0b2c c8bc c2a4 6dbf
000002a0: bef7 b1bd 5248 1bbe e3f3 07bd 9c4e cfbf
000002b0: 2a9a 3b3e 33e8 eebf 1fb3 36bf 90f5 35c0
000002c0: 1e6a 7b3f 20c3 b63f 50ec 61be abe9 49bb
000002d0: c0f3 9dbd 301b 5fbe 5f43 bcbe 8b66 a5bc
000002e0: c0cb 81c0 7e40 5b3e 1887 47be a362 aa3f
000002f0: cb17 0fc0 d069 073f adee a1c0 e4f6 29bf
00000300: 46b3 7bbf 7777 a13c 00e7 55bb 8d34 cabe
00000310: 44c5 c4bd d642 3c3e f25b 00bf 6460 9dbb
00000320: 972d 9d3f 20c0 3bbc a01a 1d3d 8193 7940
00000330: b71f 073f 042f 8cbf 68dc a33f 90ff 6cbf
00000340: 10ac d13c 2bc1 86be 3cce ec3d c86e d93d
00000350: 78b8 07bd d44c ef3d 1a93 e2bd c0b2 67be
00000360: fd9e b3be 3044 9bbc c274 03bf 4057 c83b
00000370: 1a6b f8be 7690 61be cc50 a9be 8ad2 66be
00000380: a9d6 3abe b4eb 9bbe ac42 613e 0050 acbd
00000390: a428 333e 7cfd f93d 71f3 1bbe 49e8 75be
000003a0: c63d 49be 92bb 6c3e 440a 69bd c420 4abe
000003b0: ffbc 9dbe a522 14bd a4d8 d6bd 9af1 0bbe
000003c0: 7754 163d dda7 03bd 007d bb3d 981d 6f3d
000003d0: ac19 833d 886a 663d 9f98 83be 184f 99be
000003e0: 4047 8ebe 6841 97bd 0855 7bbe 5247 303e
000003f0: d297 9cbd f085 63be 668c 1e3d 1cbc 5dbe

net.2.bias f4 [16]
-6.0656905 -0.8570125 -2.7206006 4.2085934 -0.5982597 5.32135 -0.41893092 -10.496126
-4.2669454 0.15450926 -0.38797647 2.6126096 -3.1724396 -0.2556766 -0.011095643 -0.3365953
00000000: 231a c2c0 2c65 5bbf 521e 2ec0 ccac 8640
00000010: 8c27 19bf 8048 aa40 1d7e d6be 22f0 27c1
00000020: d18a 88c0 ad37 1e3e daa4 c6be ff34 2740
00000030: 4009 4bc0 0be8 82be 80ca 35bc 3856 acbe

net.4.weight f4 [8, 16]
-1.6448959 1.1273985 0.21332212 -2.9309306 0.34873697 0.0471211 0.105532914 -1.8369107
0.15508915 -2.402747 -0.06562126 -6.463546 -0.61992466 -0.27864498 -0.28168273 -0.058583383
-0.35710454 -0.069150254 -0.47777262 -0.6987158 -0.19782361 -0.017121635 -0.14656517 -0.22121899
-0.59569466 -0.08764966 -0.19666536 -0.16594419 -0.91963035 -0.06973776 -0.021646714 0.1952219
-0.843374 -0.34039637 0.04985153 -2.1070676 0.880752 -0.011883254 -0.2514189 -1.9675845
-1.54908 -0.7173632 -0.0715314 -1.141949 -0.14067657 -0.4684471 -0.08911259 -0.1631021
-0.56700057 -0.5777523 -0.043586 -0.28662235 -0.17182773 -0.17437527 0.0063362718 -0.107534096
-0.049139857 -0.26639473 0.07984534 0.34452203 -0.69799125 -0.11679447 0.24562645 0.13171414
-0.5393862 -0.21602973 0.112028986 -1.0083927 0.55780876 1.9054958 -0.23571286 -1.5107998
-0.048985608 -0.054369647 0.034523856 0.4509441 0.04282699 -0.1391892 -0.10067269 -0.053558197
0.1844918 0.577518 0.90947336 1.3667567 0.4429026 -0.07437109 -0.15776095 0.08039219
-2.5164123 -4.3500986 -1.1336256 -3.2574677 -2.11666 -0.07375935 0.21003796 0.0034938455
0.36591306 -0.03891135 0.3329291 0.64426947 0.47926787 0.17586668 -0.08662559 -0.50747126
0.27206913 -1.1571417 0.5572721 -0.6618102 -0.45908362 0.21603838 0.04384947 0.025212448
0.7951591 -1.2343528 0.015557768 2.3415868 -0.7981569 -0.16514844 -0.07238551 0.5403772
-1.4682741 -0.33834848 -0.25172928 -1.324692 -1.4799099 0.14179398 0.1756901 -0.2160787
00000000: f38b d2bf 984e 903f 1d71 5a3e 5e94 3bc0
00000010: a78d b23e 0e02 413d a421 d83d e41f ebbf
00000020: b1cf 1e3e 9bc6 19c0 7064 86bd 5ed5 cec0
00000030: 62b3 1ebf 8eaa 8ebe b838 90be 21f5 6fbd
00000040: 68d6 b6be a69e 8dbd 9d9e f4be 0adf 32bf
00000050: 4692 4abe ac42 8cbc 2e15 16be 3b87 62be
00000060: 727f 18bf aa81 b3bd a562 49be 46ed 29be
00000070: e56c 6bbf acd2 8ebd 7354 b1bc 40e8 473e
00000080: 5ce7 57bf 6f48 aebe 1e31 4c3d 32da 06c0
00000090: f778 613f fbb1 42bc fab9 80be cfd9 fbbf
000000a0: 4148 c6bf 1da5 37bf 0e7f 92bd 632b 92bf
000000b0: 850d 10be 4cd8 efbe a980 b6bd 3d04 27be
000000c0: f326 11bf 93e7 13bf 3c87 32bd 2ac0 92be
000000d0: 9cf3 2fbe 6e8f 32be 80a0 cf3b d63a dcbd
000000e0: e046 49bd e464 88be f485 a33d 3165 b03e
000000f0: 8eaf 32bf f031 efbd 8085 7b3e 12e0 063e
00000100: 3715 0abf e636 5dbe 746f e53d 0313 81bf
00000110: 8ecc 0e3f 49e7 f33f b65e 71be e361 c1bf
00000120: 22a5 48bd b5b2 5ebd e368 0d3d 25e2 e63e
00000130: 5b6b 2f3d 9d87 0ebe 7c2d cebd d75f 5bbd
00000140: 6beb 3c3e 38d8 133f 3fd3 683f e2f1 ae3f
00000150: 21c4 e23e df4f 98bd 168c 21be a9a4 a43d
00000160: e60c 21c0 0234 8bc0 a51a 91bf 5a7a 50c0
00000170: 5c77 07c0 240f 97bd 3114 573e 00f9 643b
00000180: f558 bb3e 8261 1fbd af75 aa3e d8ee 243f
00000190: 9962 f53e 6516 343e c268 b1bd a3e9 01bf
000001a0: a54c 8b3e 381d 94bf 62a9 0e3f 656c 29bf
000001b0: 020d ebbe 2a39 5d3e 809b 333d 568a ce3c
000001c0: 8c8f 4b3f 46ff 9dbf 02e6 7e3c 8fdc 1540
000001d0: 0354 4cbf ac1c 29be db3e 94bd 2956 0a3f
000001e0: 68f0 bbbf 033c adbe a9e2 80be 828f a9bf
000001f0: b06d bdbf 7132 113e 1be8 333e bc43 5dbe

net.4.bias f4 [8]
0.99626404 -0.5854987 -0.80253464 -0.3700296 3.6318915 0.06971702 4.7959704 -2.22427
00000000: 290b 7f3f 3ee3 15bf e972 4dbf 8574 bdbe
00000010: e970 6840 ccc7 8e3d 9778 9940 715a 0ec0

net.6.weight f4 [1, 8]
-0.5137938 0.28015378 0.009376615 -0.30976006 -0.2828498 0.3032569 0.3448695 -0.27550367
00000000: fe87 03bf 5170 8f3e 60a0 193c df98 9ebe
00000010: b0d1 90be 7d44 9b3e bc92 b03e d10e 8dbe
