old_work/Classification_AB/NeuralNetwork/best_Model_5_dataV3.1.pth (torch, 8232 bytes, 7 tensors)

net.0.weight f4 [16, 6]
00000000: 5da2 58bd 6836 153f a6a2 d8bd 3d63 223e
00000010: ecf8 03c0 746a edbd 9e62 9b3d 7dd4 7cbe
00000020: f93a b0be 8d7e 263e a459 1abe 0cc0 953d
00000030: cfcd 2a3f 0f96 e8be 0569 51be f692 70be
00000040: a1ff 0abf de79 df3e de39 e9bb 036d d4be
00000050: 2ac4 633f e1bc 45be 50ed 30bf 5172 01c0
00000060: 0998 61bd 5acb 56be 5265 263d ceb6 a43e
00000070: 63c6 3cbe 9cdc 863e 84d2 97be aaee a53e
00000080: 0062 c5bf 6d35 1e3e d606 0e3e 6426 2940
00000090: e0c0 b53d 3b59 353e a931 87be ef11 af3d
000000a0: 2af7 543e 6780 d83c 623b de3d 7fdd 513f
000000b0: 5fbb 603e d8ae 723d 4987 3e3f fd33 0dbf
000000c0: ee72 be3c ffc8 3a3f f8ec 7cbd 0062 9d39
000000d0: b799 bf3d 03d7 51bf 385c 423e 7a19 09bf
000000e0: a9ab c5be 2b13 b1bd 77b0 313d c98c d03e
000000f0: 37d4 42bd 50dd 03bf c84d cf3e 93f9 a5be
00000100: 045d 2abe 3cf3 123e 888b fdbd 55d0 81bf
00000110: bbd1 0a3e 3c61 30be aad0 d6bd 4261 833f
00000120: 585e 043e 019d babe c7a4 5abe 48f5 443d
00000130: e42c b73d 5b87 ec3d 76c6 2d3d 0f97 b43d
00000140: c406 98be c9d2 9f3e a3f8 f13c 7b9e 593e
00000150: 04f5 ff3d c087 2bbf d0e4 3e3f 9e9e 89be
00000160: 0b38 49bf 12e6 aabf 33dc a2be 8250 8cbe
00000170: 5884 a6bf bf4a 083c d5b6 a5bb decd 733f
-0.052889217 0.5828614 -0.10577898 0.15858169 -2.062068 -0.1159257 0.07587169 -0.24690433
-0.34419993 0.16259213 -0.15073258 0.07312021 0.6672029 -0.45426986 -0.20450218 -0.23493561
-0.5429631 0.43647665 -0.007117494 -0.4148942 0.889712 -0.19310333 -0.6911211 -2.0226023
-0.055076633 -0.2097601 0.04062397 0.3217072 -0.18435054 0.26340187 -0.29652798 0.3240865
-1.5420532 0.15450068 0.13869795 2.6429682 0.088746786 0.1770982 -0.26405075 0.085483424
0.2079741 0.026428415 0.1085117 0.819786 0.21946476 0.059248775 0.7442518 -0.5515745
0.023248162 0.72962946 -0.06174943 0.0003001839 0.09355491 -0.81968707 0.18980491 -0.535545
-0.3860753 -0.08646234 0.04338118 0.4073241 -0.047565665 -0.5150957 0.4048903 -0.32416973
-0.16637045 0.14350599 -0.12380129 -1.0141703 0.13556568 -0.17224592 -0.10489018 1.0264056
0.12926614 -0.3644791 -0.2135192 0.04808548 0.08944109 0.115492545 0.042425595 0.08817875
-0.29692662 0.31215504 0.029537505 0.21251862 0.12497905 -0.67004013 0.7456789 -0.26878828
-0.7860114 -1.3351462 -0.31808624 -0.27405173 -1.3009138 0.008318602 -0.0050571957 0.95236003

net.0.bias f4 [16]
00000000: 11fd a43e 1cd9 a7be 20c5 943e 671a 22bd
00000010: 19ba dbbe 1e09 a73c 0272 0cbe 11ad 013d
00000020: df6b a23e e0f3 ad3d c4d2 bc3c 2817 2b3e
00000030: 4be0 40be f4c4 b73d 717c dcbe 0d4f a03e
0.32224324 -0.3278283 0.29056644 -0.03957596 -0.4291542 0.02039009 -0.13715366 0.03165919
0.31722924 0.08493781 0.02304972 0.16708052 -0.18835561 0.08973113 -0.4306369 0.3131031

net.2.weight f4 [32, 16]
00000000: 2813 70be 168e 5bbe d00a 493d 1cfe b6bd
00000010: 243c 12be 0e7d 77be 9c2b df3d 705a a3bd
00000020: a429 bcbd dcc0 4cbe f07c 4fbe 9c41 ed3d
00000030: f62d 093e b068 f4bc 20f2 a53c 9e9d 03be
00000040: 3d12 363f 1624 0d3e ca6f fe3e fa77 663e
00000050: 82ed 593e 6550 f6bc 2822 3fbd d63f 513f
00000060: 382c 0e3f b4b7 fabf 24da a5bf 2057 51bf
00000070: 34e6 d93d c639 04be 850e 983e 4803 9f3d
00000080: 643c f93e d607 13be df4d 1dbe 5a35 c5bd
00000090: 8c1e be3d 425c 33be 4854 15bd 7747 cf3e
000000a0: dad2 073f c59d bbbd 1121 813d a3e7 3cbf
000000b0: f3c8 0f3d 10f7 c83c d919 923e 675a 9cbe
000000c0: 279e 71be 3800 523e 68fb a13e 1a10 463d
000000d0: 4a4c bfbd 8afe 933d 88af 86bd 7e1a 8dbc
000000e0: 210d 71be 8c15 74be b23d c13d 4c16 ecbe
000000f0: e85b 11bd 7444 3a3e 2594 0f3e ffa9 183d
00000100: 0664 10be 1c0a bf3d 0db8 84bf 0b10 5bbf
00000110: c452 edbd f0ca 093f 6007 a83c 4720 3b3f
00000120: cf2e 1dbf 3aa0 72bd a765 b23d 6ada f43e
00000130: 500a a43d 40e6 88bc 2137 b2be 87d7 263e
00000140: 6195 7abd 24e2 d13d 6a0d 353e a076 7ebe
00000150: 800b 253e ec15 593c 0082 29ba 4688 0a3e
00000160: 6a6d 85be 68a0 5bbe 5f34 93be 35da 9ebe
00000170: 38ca 09bd 4256 30be 7421 373e 2873 f2bd
00000180: ef9f b5bd 384f bbbd 269c 1dbf c3e2 f4bd
00000190: 0364 093e 68f5 153f f454 c2bd dc7f 0e3e
000001a0: 52ee 513e 5ba4 dbbc 13a0 493e cdfd 85be
000001b0: 7f4c a0bd 3031 ee3c 6371 5cbe 6695 f53d
000001c0: fdca fdbe 20e4 7e3d fe27 973e 2668 d73e
000001d0: 06c7 22bd 8d5f 25bf be45 2c3e a4b0 dfbd
000001e0: 7b32 d5bc e781 8abe fc87 853d 39e6 debd
000001f0: 5bcb 843d 807c 07bc b41d 633c 7bdb 4abe
00000200: 7270 93bd 5009 af3c 5b54 ca3e 289b cabe
00000210: 5c49 833e b921 2e3f 0ab6 3cbe b48e 5838
00000220: cdd6 3bbf 6f52 353f 3d24 49be 4d73 d13e
00000230: 916e 253e 08e2 3fbe 12a0 cd3b 5e57 48be
00000240: 2566 7d3e a803 babd 19ac 5dbe eaf1 74be
00000250: 7608 9dbd 3577 a13e 1018 e23c 8c0f 843c
00000260: 698e 843e 6e7d 49bd 8748 cd3d 177e 6bbe
00000270: 1139 10be 0081 20bb e5ea 1fbe 3e0b f03e
00000280: 0347 603b d820 3a3e 2fb1 0cbf 530f 09be
00000290: fdb9 9f3d f721 b13e 484d 733d aaa6 583e
000002a0: dea5 2b3e f7d6 c8be e4df e13b 1693 86bd
000002b0: 90a8 97be 7cf3 97bd e85c d8bd 9e41 d13e
000002c0: 5edc 383f 78c1 67be 19d7 0ebf 6d73 c03d
000002d0: 4d0e 6b3e f88d 113e dc91 e23d 469a 533d
000002e0: 9bd0 2d3e df77 e23a 1988 073e dda0 ccbe
000002f0: 3733 16bd f8b6 36be 0f92 993e 09e3 6dbf
00000300: cd77 253d 9c60 f23d 7039 37bd efbb 003f
00000310: 4591 913e a2d1 02bd 84b3 963d 0e87 2abd
00000320: a145 d33e 9759 07bf 5887 143e f8a1 63bf
00000330: 3edc f2bd c078 763e e09a 8c3e c976 09bf
00000340: d8ec d7bd 50e4 ea3c 8c14 d6bd f0cc a7bd
00000350: e879 71be 0cee d73d 8423 303e 00f1 ebbc
00000360: 582f 913d 3251 2f3e fa7c 0dbe 00e3 253b
00000370: f4c1 5e3e a22e 23be 7421 da3d d82a 99bd
00000380: 3076 1fbd 502e a9bc 3cc2 bd3d 28f1 16be
00000390: bab9 523e b9e9 cd3c 78f0 b1bd b8b7 62be
000003a0: 7300 b93d ea7f 24be 4455 27be ff5a 68be
000003b0: 0077 453d cc47 513e 048d 69be 8a87 a83b
000003c0: f83b 2cbe f8c4 d5bd ca46 62be 07b9 10be
000003d0: 40c5 2abd e131 94bc 18c9 38bd 300e 05bd
000003e0: debf 89bd 7050 91be 17fa ddbd 82f4 343d
000003f0: 9895 acbd fc7c cf3d 6a9a 86bd 13cc edbd
-0.23444808 -0.2144092 0.049082577 -0.08935186 -0.14280754 -0.24168798 0.1089699 -0.07976234
-0.0918763 -0.19995445 -0.20262504 0.115847796 0.13396439 -0.029835075 0.020257056 -0.12853095
0.7112158 0.13783297 0.49694663 0.22506705 0.21282008 -0.030067632 -0.046663433 0.8173803
0.5553622 -1.9587312 -1.2957196 -0.8177357 0.10639611 -0.12912664 0.29698578 0.07764298
0.48678887 -0.14358458 -0.15361737 -0.09629317 0.0928317 -0.17515662 -0.03645733 0.4048421
0.5305611 -0.091609515 0.06305135 -0.7379095 0.03510375 0.024531871 0.28535345 -0.30537722
-0.23595487 0.20507896 0.3163712 0.0483552 -0.09340723 0.07226284 -0.06576449 -0.017224547
-0.23540165 -0.23836344 0.094355956 -0.4611076 -0.03548804 0.18190175 0.14021356 0.037271496
-0.14100656 0.093281 -1.0368668 -0.85571355 -0.11588052 0.53825283 0.02051133 0.73096126
-0.6139955 -0.059234835 0.08710795 0.47822887 0.080097795 -0.016711354 -0.34807685 0.16293155
-0.061177615 0.10248211 0.17680898 -0.2484994 0.16117668 0.0132498555 -0.000646621 0.13528547
-0.2606004 -0.21447909 -0.28750893 -0.31025854 -0.033640116 -0.17220405 0.17883855 -0.118383706
-0.088683955 -0.09145969 -0.6156639 -0.11957314 0.13417058 0.58577585 -0.0948886 0.13915962
0.20501068 -0.02681177 0.1968997 -0.26170197 -0.078270905 0.029076189 -0.21527629 0.11991386
-0.4956893 0.062229276 0.295227 0.42071646 -0.039740585 -0.64598924 0.1682348 -0.109223634
-0.026025048 -0.27052233 0.065200776 -0.10883755 0.064840995 -0.008269429 0.013862062 -0.19810288
-0.071991816 0.021366745 0.39517483 -0.395715 0.25641906 0.68020207 -0.18428817 5.1631316e-05
-0.73374635 0.7082891 -0.1964273 0.4090828 0.16155459 -0.18738568 0.0062751854 -0.19564578
0.24745996 -0.090827286 -0.21647681 -0.23920408 -0.076676294 0.3153626 0.027599365 0.016120695
0.258899 -0.049191885 0.10023599 -0.22997318 -0.14084269 -0.0024490952 -0.15616949 0.46883577
0.0034222014 0.18176591 -0.5495786 -0.13384752 0.07799146 0.34596226 0.059399873 0.21157327
0.16762492 -0.39226505 0.006893145 -0.06571023 -0.2962079 -0.07419488 -0.105645955 0.40870374
0.72211254 -0.22632396 -0.5579696 0.09397016 0.22954674 0.14214313 0.11062977 0.0516608
0.16974108 0.0017278156 0.13235511 -0.3996648 -0.036669936 -0.17843235 0.29994246 -0.92924553
0.040397454 0.11834833 -0.04473251 0.50286764 0.28431144 -0.031938203 0.07358459 -0.041632704
0.4126406 -0.5287108 0.14504755 -0.8891902 -0.11858414 0.240695 0.2746191 -0.53696877
-0.10543221 0.028673321 -0.10453138 -0.081933856 -0.2358166 0.10543451 0.17201048 -0.028801441
0.07089108 0.17120817 -0.13817206 0.0025312304 0.21753675 -0.15935758 0.10650912 -0.07478875
-0.03893107 -0.020651966 0.09265563 -0.14740431 0.20578662 0.025135862 -0.08688444 -0.22140396
0.09033289 -0.1606442 -0.1634112 -0.22690962 0.04820919 0.20437545 -0.228077 0.0051431106
-0.16819751 -0.104379594 -0.22097316 -0.14133082 -0.04169202 -0.01809019 -0.045113653 -0.032484233
-0.06726049 -0.2838168 -0.108387165 0.044178493 -0.0842697 0.10131261 -0.06572421 -0.1161119

net.2.bias f4 [32]
00000000: 8003 373c 873a b7bf cde5 a93e 8553 0a3d
00000010: 142d 6e3e 2444 05be ca59 633d 6e88 17be
00000020: 326a cdbc 13cb d9bc 41a8 00bd 1e88 783d
00000030: 718b d03d 146f 7cbe a52f 79be 6b9f 1dbd
00000040: 55a7 9cbc b232 dcbd fe80 49be 7a6b 583e
00000050: 8f7c 873d d029 e43e 12d1 553d 739f d33d
00000060: eddd 623e f349 d03d 1954 723e a790 18be
00000070: f948 bb3e 9950 fe3e 7b8f 3dbe fa9e 793d
0.011170268 -1.4314736 0.33183137 0.033771057 0.23259383 -0.13014275 0.05550555 -0.14798138
-0.025075052 -0.026586091 -0.03141046 0.060676686 0.10182846 -0.24651748 -0.24334581 -0.03848211
-0.019122759 -0.10751857 -0.19678113 0.21134749 0.066155545 0.4456315 0.052201338 0.10333147
0.2215497 0.10170355 0.23664893 -0.1489893 0.3657911 0.49670866 -0.18511765 0.060942627

net.4.weight f4 [16, 32]
00000000: 918d fcbd 9441 21be 7eb3 abbd 5cd9 fcbd
00000010: 4292 c8bd 7b74 cbbd a4c7 883d 98b9 63bc
00000020: dcf9 853c 3718 31bd 437e ce3d b04c 503d
00000030: 298a ddbc 84e1 debd 1642 203e 453e 1d3e
00000040: 25c6 703d be73 21be 00ff 873d dc5d f8bd
00000050: 5191 efbb bf7a 46bd 49cd c1bd 84ec 76ba
00000060: 8443 34be 0ebb c3bd 2cab 2c3e c692 2ebe
00000070: 7374 29be 4c7b ba3d 2297 a23b b8c4 1d3e
00000080: 7640 acbc 5bba 443c bf74 2abf 5494 d2bd
00000090: 5081 66bf d9cb 1b3e f359 f0bd ea10 bd3d
000000a0: 23de 033e d20b c4be ce1e c2be 6e34 30bf
000000b0: b9c0 57be 18e5 e9bc 192a efbd 99b8 5dbe
000000c0: ee8a 2fbf 6ec0 e63e cc4e b6bc 54e1 ed3d
000000d0: 767a 0d3e d1d1 1abf 1c5c cdbe 983e a63e
000000e0: f1a5 f63d b059 01be 9142 edbe b01a dc3e
000000f0: 8ca7 29bf f50b 4fbf 53cb d73d 8db6 123e
00000100: be5e 023e c2df 72bf 7875 8f3e 0c22 f13c
00000110: 4701 193f adb4 d43d 1f60 be3d 352e 983a
00000120: 5931 2c3e 8adf 8b3d 42df a23d 859c a93d
00000130: 79d8 043e 12bf d73d 4d6f 3cbe 549b 9fbc
00000140: 3882 6f3e 759e 7dbd 7c14 863c f77a 52bd
00000150: 9a37 003e 7476 abbb 4f4d be3d 5ce2 0dbe
00000160: 70b2 bd3d 7eb1 0e3e b8fc 9b3e d893 5eba
00000170: d475 c03e 8e0c 253e 2171 063d d4b8 18be
00000180: e588 34bd b033 e73d 7a62 3dbf 87d4 d8bc
00000190: f1f8 4dbf f5d8 49be d416 14be 5b41 ea3c
000001a0: cc8d 623e c215 cebe 9f99 fcbe df2e 21bf
000001b0: 2724 59be 2096 cfbd 6bf9 1a3e 5925 3bbe
000001c0: f58c 24bf e514 dd3e 470d 7a3d 122a d83d
000001d0: 50b6 84bd 4fbf 93be d18e ddbe 8581 c13e
000001e0: d87f 863e 44d1 ef3d 750f 23bf cd27 c83e
000001f0: f1b0 ddbe 283d 66bf d16c ddbd f87b 593e
00000200: 6cc9 053d dc2f 14be b4b5 c6bd d110 5abe
00000210: 9d10 e03d 1007 d4bc ca86 07bd 4176 25be
00000220: 588d 19be f1ce 29be 21f8 23be 3e4e 813d
00000230: 881c 823d 6024 8c3d 67c7 313d 5dae 0cba
00000240: 47c5 c93d 8d3a 11bb e740 30bd 55ae 8ebe
00000250: 62e7 343e c180 23be f383 fd3c a964 c73a
00000260: de2e 993b 7694 71be bd39 0abe c514 34be
00000270: bed5 6fbd 9923 3abe ae7d 32be 11b9 82be
00000280: 5499 ec3d dcbd ccbd d3ee 34be deff 1cbe
00000290: 2461 c83c 930b a5bb a469 4bbd 04ed e4bd
000002a0: 07b3 71be 6808 4e3d f2d6 71be e8ee 1dbe
000002b0: 218b 47be 163b dd3d 354e 883d 2034 0f3c
000002c0: b352 7cbe b4a1 ab3a 8ed5 05bd 3ab5 d8bd
000002d0: c375 9fbd dd9a a1bd 1f58 3bbe 4291 3b3d
000002e0: 2dab 6c3b 390c 49bd da0c 3bbe 8575 cbbc
000002f0: dcae 43be 621e 83be bdef d13d b8d2 9ebd
00000300: e31b 0bbe 1fe1 44bf 68a4 dd3e fc12 333e
00000310: 675c 053f b05f 82bd c20e 683e df30 aa3d
00000320: b239 afbd ae7d ec3d 55c0 9a3d 45c1 103e
00000330: 2976 ac3e c271 24bd 72f7 be3d fdc0 693d
00000340: 41c6 433e 77fa 77be e507 aa3d 517b 343e
00000350: 0896 13be dcbc 653e c0cb 3c3e e75e d73d
00000360: 293a 353e 1bec f43d 144c 343e 5f33 2dbe
00000370: aeba c73e 8126 d93e f832 37bd 8ed8 2abe
00000380: 2ff1 0cbe 831e 8cbd 40f0 3bbc e85d 89be
00000390: 7838 723e e073 c03d feb2 c9bd 70d7 41be
000003a0: 91eb d2bd 4850 bdbe 4f26 c7bd fc03 49be
000003b0: e707 2fbe 9ba2 e03c ce0f efbd 42a9 6d3d
000003c0: 263b 88bd fb84 3e3e e603 d53c 30bb 94be
000003d0: 2ce7 9d3d 2a4a 35be 367a f9bc 9422 13be
000003e0: d7e7 a0be 6184 a9be 9d79 a1bd a164 42be
000003f0: f740 6a3d b11f ab3d a344 86bb 8188 fe3d
-0.12331689 -0.15747672 -0.08383845 -0.123461455 -0.097935215 -0.09934326 0.066787034 -0.0138992295
0.016354494 -0.043235984 0.10082676 0.050854385 -0.027043419 -0.108828574 0.1565021 0.15355785
0.058782715 -0.15766808 0.06640434 -0.12127277 -0.0073110242 -0.048456904 -0.09462983 -0.0009419399
-0.1760388 -0.09557162 0.16862172 -0.17048177 -0.16548328 0.09105548 0.004961864 0.15407073
-0.021026831 0.012007321 -0.6658439 -0.102821976 -0.90041065 0.1521448 -0.117359065 0.09231742
0.12877707 -0.38290268 -0.37914127 -0.6883 -0.21069612 -0.028551623 -0.11677951 -0.2165245
-0.68571365 0.45068687 -0.02225437 0.116152436 0.13816246 -0.60476404 -0.40109336 0.3246963
0.120433696 -0.1263187 -0.4633985 0.4298911 -0.6627128 -0.8087762 0.10536828 0.1432745
0.12731454 -0.9487268 0.2801931 0.02943518 0.59767574 0.10386024 0.092956774 0.001161045
0.168157 0.06829746 0.07952739 0.08281807 0.12973203 0.10534491 -0.18401833 -0.019483246
0.23389518 -0.061918695 0.01636719 -0.0513868 0.1252121 -0.0052326266 0.09292089 -0.1385588
0.0926255 0.13934895 0.30466247 -0.00084906584 0.37589896 0.1611807 0.032822732 -0.14914256
-0.044075865 0.112891555 -0.7397839 -0.026468528 -0.8045798 -0.19711669 -0.14461833 0.028595617
0.22124404 -0.40250975 -0.49335954 -0.62962145 -0.21205197 -0.10136056 0.15134208 -0.18275966
-0.64277583 0.43180004 0.06104782 0.10554899 -0.06480086 -0.28856894 -0.43273023 0.37794128
0.26269412 0.11709836 -0.6369546 0.39092866 -0.43299058 -0.8993707 -0.10811771 0.21238697
0.032662794 -0.14471382 -0.09702626 -0.21295477 0.10940669 -0.025882274 -0.03308753 -0.16158392
-0.14995325 -0.16582848 -0.16012622 0.06313752 0.06353098 0.068428755 0.043403056 -0.00053665583
0.09852081 -0.0022160143 -0.043030646 -0.2786738 0.1766639 -0.15967084 0.030946707 0.0015212494
0.0046747765 -0.2359179 -0.13498588 -0.17586048 -0.05855345 -0.18177642 -0.17430755 -0.2553182
0.115526825 -0.0999715 -0.17669229 -0.1533198 0.024460383 -0.00503678 -0.049661294 -0.1117802
-0.2360345 0.050300986 -0.23617151 -0.15423167 -0.19486667 0.108022854 0.06655542 0.008740455
-0.24640922 0.0013094456 -0.032674365 -0.10581441 -0.07786133 -0.07890866 -0.18295334 0.045792826
0.003611277 -0.049083922 -0.18266621 -0.024836311 -0.19109672 -0.25609118 0.102508046 -0.07755035
-0.13584857 -0.7690601 0.43289495 0.1748771 0.5209412 -0.06365907 0.2266188 0.08310103
-0.085559264 0.11547409 0.07556216 0.14136226 0.336839 -0.04014755 0.0932454 0.057068814
0.19118597 -0.24216639 0.08302287 0.17625166 -0.14412701 0.22435325 0.184371 0.10516148
0.17697968 0.11959096 0.17607147 -0.16914128 0.39009613 0.4241219 -0.044726342 -0.16684172
-0.13763879 -0.06841757 -0.011470854 -0.26829457 0.23654354 0.093971014 -0.09848593 -0.18929839
-0.10298837 -0.36975312 -0.09724104 -0.19630426 -0.17092858 0.027421286 -0.116729364 0.058022745
-0.06651907 0.18605416 0.026002835 -0.29049063 0.07710108 -0.17704073 -0.030453783 -0.1436866
-0.3142688 -0.3310881 -0.07884524 -0.189837 0.05719086 0.08355654 -0.0040975376 0.1242838

net.4.bias f4 [16]
00000000: a557 00be e77c 6f3e 2396 cf3e b3fe 3d3d
00000010: 3f41 9ebc a776 0a3c 9535 033e 753e e3bd
00000020: 8e79 ccbd 0644 22be f387 0dbe b117 aabe
00000030: 8e45 503e ee9c c93e 6fc6 b33e fd8f 3d3e
-0.12533434 0.2338749 0.40544233 0.04638548 -0.019318221 0.0084511405 0.12813409 -0.11095897
-0.09984122 -0.15846261 -0.13821392 -0.332212 0.20339033 0.3937754 0.3511233 0.18511958

net.6.weight f4 [1, 16]
00000000: b83c a7bd 7af2 153f 0eab 5ebe de7a 2d3f
00000010: 3422 17be f596 bebd fb1b 0cbe 9087 4a3c
00000020: fc08 cfbd f3a0 4bbd a733 1ebb 5034 a0be
00000030: 2bb3 8ebe 06c3 93be 6d07 6dbe ab73 d03e
-0.08165878 0.58573115 -0.2174494 0.67765605 -0.14759141 -0.093061365 -0.13682549 0.012361422
-0.101091355 -0.04971404 -0.0024139674 -0.3128991 -0.2787107 -0.2885973 -0.23147364 0.40713248
