CNN_AB_new/model_evaluation/CNN_model_Simple2C2D_new_01channel.pt (torch, 34457 bytes, 5 tensors)

weight f4 [16, 2, 3, 3]
0	0x3dce18ca	0.10063322
1	0xbe645029	-0.22296204
2	0x3e747c6f	0.23875593
3	0xbe57ab45	-0.21061428
4	0xbe17ef19	-0.14837302
5	0xbe95c09e	-0.29248518
6	0xbe6f17b6	-0.23348889
7	0x3e35a428	0.17738402
8	0xbeae03d4	-0.33987296
9	0x3dcc7432	0.099831
10	0xbe6a6034	-0.22888261
11	0x3e4b489a	0.19851914
12	0xbe14f08c	-0.14544886
13	0xbe409e4a	-0.18810382
14	0xbe6f4b6a	-0.23368612
15	0x3e0d3e9a	0.13793412
16	0xbe6925a4	-0.22768265
17	0x3e3ed37d	0.18635364
18	0xba30064e	-0.00067148067
19	0x3e89fc20	0.2695017
20	0x3e1e67f0	0.15469337
21	0xb9171bc4	-0.00014410826
22	0x3e941aa0	0.28926563
23	0x3e99a557	0.30008957
24	0xbae7b47c	-0.001767769
25	0x3e95dc06	0.29269427
26	0x3ea406b3	0.3203636
27	0xbac7ec4c	-0.0015252917
28	0x3e7b39ab	0.24533717
29	0x3e803d7d	0.25046912
30	0xbb4bccc2	-0.0031097387
31	0x3e813fbc	0.25243938
32	0x3e8a0d41	0.26963237
33	0xbd19517d	-0.03743123
34	0xba33db62	-0.00068609987
35	0xb9cc9ed1	-0.0003902824
36	0x3c0c2841	0.008554519
37	0x3e959b8f	0.29220244
38	0x3ea8cf97	0.32970878
39	0x3cfde383	0.030992275
40	0x3d81dd62	0.063410535
41	0x3efb06f2	0.49028736
42	0x3e6c3327	0.23066388
43	0x3d8ce4a6	0.06879549
44	0x3c9fa8b4	0.019489624
45	0x3c0dc14a	0.008652041
46	0xbacc1159	-0.0015569135
47	0xb902316d	-0.00012416179
48	0x3cd5f90c	0.026119731
49	0x3c3e6fd8	0.011623345
50	0x3c2f4c98	0.010699414
51	0xba30a4d8	-0.0006738431
52	0x3b04c58a	0.0020259344
53	0xba7d6fec	-0.0009667862
54	0x3d3686d3	0.044562172
55	0x3d5dda07	0.054163005
56	0x3c4be9fb	0.012445922
57	0x3d45c5ee	0.048284464
58	0x3d4e0520	0.050297856
59	0x3c6cafe6	0.014446234
60	0x3d6432b6	0.055712424
61	0x3d6fa204	0.05850412
62	0x3d45b0a1	0.04826415
63	0x3dcd1967	0.10014611
64	0x3f12afb0	0.5729933
65	0x3dda519d	0.10660098
66	0x3e1928df	0.14956997
67	0x3f08c6cd	0.53428346
68	0x3c4605c3	0.012086335
69	0x3e0365f3	0.1283186
70	0x3f0525c4	0.5201075
71	0x3cbf5821	0.023357453
72	0x38520c2a	5.007923e-05
73	0xba657bca	-0.0008754103
74	0x3c114138	0.008865647
75	0x3c122b8d	0.008921516
76	0x3c1212b4	0.008915592
77	0x3bf727f2	0.0075426036
78	0x3b92526c	0.004465392
79	0x3bb7956d	0.0056025297
80	0x3cf69fbb	0.030105462
81	0x3f005e87	0.5014424
82	0xbc4cb989	-0.012495407
83	0x3e94c1fc	0.29054248
84	0xbd2a1325	-0.041522164
85	0xb9c86ec4	-0.000382295
86	0xbd8c2469	-0.06842882
87	0x3f2f189f	0.68396944
88	0xbcbebee9	-0.023284392
89	0x3f0b768e	0.54477775
90	0x3e94e006	0.29077166
91	0x3d844504	0.06458476
92	0xbd5bae73	-0.053633165
93	0x3e8d40b5	0.2758843
94	0x3e975f0d	0.29564705
95	0xbd3e6886	-0.0464864
96	0x3d2c52d3	0.042071175
97	0x3e98dd7b	0.29856476
98	0x3c2852b2	0.010273622
99	0x3d117b04	0.035517707
100	0x3d8edbfe	0.06975554
101	0xba0e7d89	-0.00054355763
102	0x3ea42286	0.3205759
103	0x3eb30d00	0.34970856
104	0xbaa2b48e	-0.0012413429
105	0xbc620d97	-0.013797185
106	0x3b22dc15	0.0024850417
107	0xb8ebc1a7	-0.00011241744
108	0xb997ae8a	-0.00028931006
109	0x3d1fcc08	0.03901294
110	0x3d99a9cb	0.075030886
111	0x3c2989b5	0.010347773
112	0x3e814d2a	0.25254184
113	0x3e87864a	0.26469642
114	0x3d1f93bd	0.038959254
115	0xb9d35dc7	-0.00040314926
116	0xba08fd1e	-0.00052257057
117	0xbc339cc0	-0.010962665
118	0xbb00484b	-0.001957434
119	0x3befb505	0.0073152804
120	0x3e397eea	0.1811482
121	0x3ea5074b	0.32232127
122	0x3ec0eb2c	0.37679422
123	0xbc12a2c8	-0.008949943
124	0xb990cffb	-0.00027620778
125	0x3eb951d7	0.3619525
126	0x3e10b745	0.14132412
127	0xbe76fe36	-0.24120411
128	0x3e0bfdb7	0.13671003
129	0xbe19f8e4	-0.1503635
130	0xbe5c5340	-0.21516132
131	0xbe55b987	-0.20871554
132	0x3e188c21	0.14897205
133	0xbe6ca857	-0.23111092
134	0xbe5752dd	-0.21027704
135	0xbe6e8c8c	-0.23295802
136	0x3e2eb892	0.17062595
137	0xbe2e3f1a	-0.17016259
138	0xbe5e399f	-0.21701668
139	0xbdd1ba22	-0.1024058
140	0xbe286a92	-0.16446903
141	0x3dba81a7	0.091067605
142	0xbdfdd50c	-0.12394151
143	0x3e0eb7bc	0.13937277
144	0x3de3dbb0	0.111258864
145	0xbe672291	-0.2257178
146	0xbe7bd5ad	-0.2459323
147	0xbe072034	-0.13195878
148	0xbe848455	-0.2588221
149	0x3e11f9b7	0.14255415
150	0x3d8ff019	0.07028217
151	0xbe54b334	-0.20771486
152	0xbe82630d	-0.25466195
153	0x3d157544	0.036488786
154	0xbd940535	-0.07227556
155	0xbe216b06	-0.15763482
156	0xbe299d02	-0.165638
157	0xbdcd9a0e	-0.10039149
158	0x3e3b450b	0.18288057
159	0xbe4739bc	-0.19455618
160	0x3e5440e8	0.20727885
161	0xbe4da514	-0.20082504
162	0xbe45dd91	-0.19322802
163	0xbe6151a9	-0.22003807
164	0x3e1817e0	0.14852858
165	0x3e26f1e9	0.16303219
166	0xbe0db6e4	-0.13839298
167	0xbe111c59	-0.1417097
168	0xbe4bb47d	-0.1989307
169	0xbe5ce03c	-0.21569914
170	0x3e313638	0.17305839
171	0x3d938f8c	0.07205114
172	0x3e18a878	0.14908016
173	0xbe7244f2	-0.23659113
174	0xbe31c364	-0.17359692
175	0xbdea7cc0	-0.114495754
176	0xbe6c8b0f	-0.23099922
177	0x3e124835	0.14285357
178	0xbe1debdc	-0.15422004
179	0xbe6ee796	-0.2333053
180	0x3dc43a7e	0.09581469
181	0xbe41b02d	-0.18914862
182	0xbe3a8b50	-0.18217206
183	0xbe01bc38	-0.12669456
184	0x3e28a57f	0.16469382
185	0xbe22f6d6	-0.15914473
186	0xbdf903f2	-0.12158956
187	0x3e2ad3df	0.16682385
188	0xbe1dea66	-0.15421447
189	0xbe0578cf	-0.13034366
190	0x3e1b9fcc	0.15197676
191	0xbd355114	-0.044266775
192	0xbe031b28	-0.12803328
193	0xbe2a8401	-0.16651918
194	0x3e10ffc1	0.14160062
195	0x3dc4a1b2	0.096011534
196	0xbe265ba5	-0.16245897
197	0xbd84d78f	-0.06486427
198	0x3ecf1e03	0.40452585
199	0x3f80a79b	1.0051149
200	0x3f4e1bd9	0.8051124
201	0x3f5bdc45	0.8588298
202	0xbe936ec9	-0.2879546
203	0xbe4f0a1a	-0.20218697
204	0x3e69d34f	0.22834514
205	0x3f797a49	0.9745222
206	0x3f5d7974	0.8651345
207	0x3dde40a6	0.108521745
208	0x3f21c61f	0.63192934
209	0xbe6f89aa	-0.23392358
210	0x3e6bf81c	0.23043865
211	0xbe6f6e36	-0.23381886
212	0x3f62c515	0.88581973
213	0x3f5333f4	0.8250115
214	0xbe72d257	-0.23713051
215	0x3e4f6648	0.20253861
216	0x3de8be59	0.11364431
217	0x3f200b58	0.6251731
218	0xbb7e04a7	-0.0038760097
219	0x3de63beb	0.11241897
220	0x3ca022d5	0.01954786
221	0x3d03b028	0.032150418
222	0x3f3262c6	0.69681966
223	0x3e082caa	0.13298288
224	0x3e7a2e52	0.24431732
225	0xbb8d8849	-0.004319225
226	0xba79d972	-0.0009530998
227	0xba0cd407	-0.00053721707
228	0x37b26009	2.1263973e-05
229	0xb962ec36	-0.00021641035
230	0xb98334d4	-0.00025025627
231	0x3c8ece8a	0.01743247
232	0x3bfee03f	0.007778197
233	0xbae4fce3	-0.0017470386
234	0x3ee89b24	0.45430863
235	0x3d990ac3	0.07472756
236	0x3efe804f	0.49707267
237	0x3dac3c20	0.084099054
238	0xbbad01a4	-0.0052797366
239	0xbd1612b4	-0.03663893
240	0x3ef9a6d8	0.48760104
241	0xbcf38b06	-0.029729377
242	0x3f2213f1	0.6331168
243	0xbabf6ece	-0.0014605166
244	0xba68c4e8	-0.0008879439
245	0xba91d544	-0.001112618
246	0xb942adad	-0.00018565981
247	0xb9ae5418	-0.0003325052
248	0xba0bb3f5	-0.0005329245
249	0x3c4e3530	0.012585923
250	0xba9991a5	-0.0011716379
251	0xb8c4bd90	-9.381317e-05
252	0x3f197d70	0.5995703
253	0x3efd650d	0.49491158
254	0x3f00f455	0.5037282
255	0xbdc6272a	-0.09675439

bias f4 [16]
0	0xbb71b36f	-0.0036880632
1	0x3b9180ec	0.0044404175
2	0x3ad0254d	0.0015880257
3	0x3bb99514	0.0056635235
4	0x3aa4d017	0.0012574223
5	0x3b92acfd	0.004476188
6	0x3b74bf2d	0.0037345395
7	0xbbcce5e1	-0.0062529896
8	0xbbdabfca	-0.006675695
9	0xbb9bd87e	-0.0047560325
10	0xbb634af7	-0.0034682134
11	0xbf74cd9b	-0.9562623
12	0x3b12609d	0.0022335418
13	0x3b625dc4	0.0034540752
14	0xc015c368	-2.3400517
15	0xbbe9cf55	-0.0071353116

weight f4 [32, 16, 3, 3]
0	0x3c0d33a2	0.008618267
1	0x3e56c5b0	0.2097385
2	0xbdc906fe	-0.09815787
3	0xbe0798db	-0.13241903
4	0xbde6b33e	-0.112646565
5	0xbdbf04e0	-0.09327102
6	0xbc3d5136	-0.011555007
7	0xbe292806	-0.16519174
8	0x3d2ba903	0.04190923
9	0x3de009a4	0.10939339
10	0x3e37ceb8	0.1794995
11	0xbe334315	-0.17506059
12	0xbdd8e877	-0.10591214
13	0xbdbacf88	-0.09121615
14	0xbdcd2533	-0.10016861
15	0x3d1223ce	0.035678677
16	0xbe3549d6	-0.17703947
17	0x3dcdb7f0	0.10044849
18	0x3da6686a	0.08125384
19	0x3db83bca	0.08995779
20	0xbe07d092	-0.13263157
21	0xbd1895a5	-0.037252087
22	0x3beb7efb	0.007186768
23	0xbdaf7fa2	-0.08569266
24	0x3d0fb738	0.03508684
25	0xbddf1b0c	-0.10893831
26	0xbccd2408	-0.025041595
27	0xbe4eb0a5	-0.20184572
28	0x3dbbb23b	0.09164854
29	0xbe079ac0	-0.13242626
30	0xbdf0bd87	-0.117548995
31	0xbe381363	-0.17976145
32	0xbe1f5738	-0.15560615
33	0xbe0aa120	-0.13538027
34	0xbe73debb	-0.23815434
35	0x3db11ca7	0.08648043
36	0xbe693f49	-0.22778048
37	0xbb0c3e17	-0.0021399313
38	0xbdb71b67	-0.089407735
39	0xbe3d1ef6	-0.18468842
40	0xbe2e6c65	-0.17033537
41	0xbe1a198e	-0.15048811
42	0xbe905527	-0.28189966
43	0xbe9ada3b	-0.30244622
44	0x3d68dde3	0.056852233
45	0xbd200157	-0.039063778
46	0x3e193576	0.149618
47	0x3dce4f2f	0.10073697
48	0xbdaf1f22	-0.0855086
49	0xbdb14300	-0.08655357
50	0xbd96c31d	-0.07361434
51	0x3d8fe3e1	0.07025886
52	0xbe27d0a8	-0.1638819
53	0x3cb114db	0.02161639
54	0x3e04b621	0.12960102
55	0x3e161219	0.14655341
56	0xbdb65c9a	-0.08904381
57	0xbd1f26db	-0.038855415
58	0xbd31a540	-0.043370485
59	0xbdb9c2d6	-0.09070365
60	0xbb7c85a6	-0.003853181
61	0xbe660712	-0.22463635
62	0xbd0ca7bf	-0.034339663
63	0x3b8266e7	0.003979552
64	0x3e4e6229	0.20154633
65	0x3c7645dd	0.015031305
66	0xbc9ca317	-0.019120736
67	0xbd8fa5b3	-0.070140265
68	0xbd5cd985	-0.05391838
69	0xbd295330	-0.0413391
70	0xbe0c39cb	-0.13693921
71	0x3cf35020	0.029701293
72	0x3da6b98e	0.081408605
73	0x3d408bde	0.047008388
74	0x3bedc9cf	0.0072567235
75	0xbd836a43	-0.06416752
76	0xbd3a27d6	-0.045448147
77	0xbdb6f4b3	-0.089333914
78	0xbc5539e5	-0.013014291
79	0xbdf27a4a	-0.11839731
80	0x3cdee942	0.027210835
81	0xbd1bedf9	-0.038068745
82	0x3e49c042	0.19702247
83	0xbdf15150	-0.11783087
84	0xbd292bad	-0.041301418
85	0xbd911613	-0.070842884
86	0xbdb4f29f	-0.08835339
87	0x3cfee874	0.031116702
88	0xbdd6eab5	-0.104939856
89	0x3d83326f	0.06406104
90	0x3d2e2a07	0.04252055
91	0x3de3e8a5	0.11128358
92	0x3d224d4b	0.039624494
93	0xbd737e85	-0.05944683
94	0xbd129cbf	-0.035794016
95	0xbd17defe	-0.037077896
96	0xbc9e9d53	-0.019362127
97	0xbdc0dd76	-0.0941724
98	0x3dafe782	0.085890785
99	0xbe20c98e	-0.15701887
100	0xbe8396b8	-0.25700927
101	0xbe1d5be6	-0.15367088
102	0xbaa9f9e3	-0.0012968149
103	0x3d7791ab	0.060441654
104	0x3d51c23c	0.051210627
105	0xbd449e20	-0.048002362
106	0xbcdcf984	-0.026974447
107	0xbd46ccaf	-0.048535045
108	0x3e22d9d2	0.15903404
109	0x3db77513	0.08957877
110	0xbb8b84f9	-0.004257795
111	0xbd8c0045	-0.06835989
112	0x3c40f727	0.011777676
113	0xbd83588f	-0.064133756
114	0x3dbce0a4	0.09222534
115	0xbe52ef2d	-0.20599051
116	0x3cc84479	0.024446713
117	0x3dfb7e7e	0.12279986
118	0x3dfaab6d	0.12239728
119	0x3ca6d555	0.020365397
120	0x3c56a20c	0.013100158
121	0x3b402b16	0.0029322556
122	0xbdb5054d	-0.08838902
123	0x3d9a13bf	0.075232975
124	0xbe74bc1e	-0.23899886
125	0x3d77255e	0.06033837
126	0xbe912643	-0.28349504
127	0xbec2465a	-0.379443
128	0xbe665117	-0.22491871
129	0xbd9693f5	-0.07352439
130	0xbd88e663	-0.06684568
131	0xbb75d1ae	-0.0037509012
132	0xbdf82179	-0.121157594
133	0xbc966d27	-0.018362595
134	0xbdf3872e	-0.11891018
135	0xb9c45a70	-0.00037451414
136	0x3e1d9ecc	0.15392607
137	0xbd86157f	-0.06547069
138	0xbdab568a	-0.083661154
139	0xbd353c53	-0.044246983
140	0xbcd87491	-0.02642277
141	0xbc2625f2	-0.010140883
142	0xbdd56bbc	-0.10420939
143	0x3d9215c0	0.07133055
144	0x3e4b40fa	0.19849005
145	0x3db7ed3b	0.08980795
146	0x3e21ebfa	0.15812674
147	0x3a83b087	0.0010047116
148	0xbd87d3c0	-0.06632185
149	0x3d3462c1	0.04403949
150	0xbd836a97	-0.06416815
151	0xbd502bfb	-0.050823193
152	0xbdb9fb6e	-0.090811595
153	0x3e3693b5	0.17829783
154	0x3d95f29c	0.07321665
155	0x3e366b34	0.17814332
156	0x3dcaf389	0.09909732
157	0xbde2dd55	-0.11077372
158	0xbc546a73	-0.012964833
159	0xbc34206c	-0.010994058
160	0xbcb2fc45	-0.021848807
161	0xbdaa7619	-0.083233066
162	0x3e31de52	0.17369965
163	0xbd90ca8a	-0.07069881
164	0x3c5d2623	0.013497862
165	0x3d921c31	0.07134283
166	0xbdb585bb	-0.08863398
167	0x3d308a76	0.043100797
168	0xbce2622b	-0.0276347
169	0xbd0a6d2b	-0.033795517
170	0xbd81ca3f	-0.063374035
171	0x3d5bbda1	0.05364764
172	0x3e5ff851	0.21872069
173	0xbcbfd4ee	-0.023416962
174	0x3deb6070	0.11493003
175	0xbddabf5e	-0.10681032
176	0xbd9920b0	-0.07476938
177	0xbd71b255	-0.05900796
178	0xbd9932c0	-0.07480383
179	0xbdcde854	-0.10054079
180	0x3d40a37f	0.047030922
181	0x3d2c6dc4	0.04209687
182	0x3e2a02e8	0.16602671
183	0x3d7ca607	0.061681774
184	0xbd3633c5	-0.044482965
185	0xbd64cfcd	-0.055862237
186	0xbdd6ef85	-0.104949035
187	0xbdee2ceb	-0.11629661
188	0xbe127140	-0.14301014
189	0x3ce060ae	0.02738985
190	0xbcaddfe2	-0.02122492
191	0xbd6541ff	-0.055971142
192	0x3d26cd5b	0.040723186
193	0xbd3ee625	-0.0466062
194	0x3d0e71a6	0.034776352
195	0xbd3aeca4	-0.045635834
196	0xbd87980e	-0.06620799
197	0xbcdacacb	-0.026708027
198	0xbd1853c9	-0.03718928
199	0xbd6b2420	-0.0574075
200	0xbc944296	-0.018098157
201	0x3e1fb015	0.15594514
202	0xbd13a41b	-0.036045175
203	0xbdb42c01	-0.087974556
204	0xbcbebe39	-0.023284065
205	0xbd091b67	-0.0334734
206	0xbde5c673	-0.11219492
207	0x3dcf10ec	0.101106495
208	0x3dda97ce	0.10673486
209	0x3d977d54	0.07396951
210	0x3da9da63	0.08293607
211	0xbd1e77e4	-0.038688555
212	0xbcab7ab0	-0.020932525
213	0xbd1e802c	-0.038696453
214	0xbd2c7d53	-0.042111706
215	0xbd9a7e00	-0.07543564
216	0x3deb3ac3	0.11485817
217	0xbc3de6a0	-0.01159063
218	0x3d9cc11d	0.07654021
219	0xbc985fcf	-0.018600373
220	0xbd1c7127	-0.038193848
221	0xbd0ea1d3	-0.034822296
222	0xbd9eb297	-0.07748907
223	0xbcebd816	-0.028789561
224	0xbd406bc5	-0.046977777
225	0x3d673cd4	0.056454495
226	0x3d5dadcf	0.054120835
227	0x3d9961fc	0.07489392
228	0x3df5b81d	0.119980074
229	0xbc4f4766	-0.0126513
230	0xbc8146b0	-0.015780777
231	0xbcf2070e	-0.02954438
232	0xbd3b0207	-0.04565623
233	0xbd880b57	-0.06642788
234	0x3e1fe15f	0.15613316
235	0x3dc1c9bb	0.09462305
236	0x3dfe7e39	0.12426419
237	0x3d4752c6	0.048662923
238	0xbd5047f2	-0.050849862
239	0xbd1ac542	-0.037785776
240	0xbce8c530	-0.028414339
241	0xbcdc11f8	-0.026864037
242	0xbd1078f3	-0.035271596
243	0xbba663d1	-0.005077817
244	0xbd886e83	-0.066617034
245	0xbc4adbed	-0.012381536
246	0xbc8db0de	-0.01729625
247	0xbd34b5b1	-0.044118587
248	0xbd31ac3b	-0.043377142
249	0xbb8aae61	-0.0042322134
250	0xbc978399	-0.018495368
251	0xbd24b935	-0.04021569
252	0x3d99144a	0.07474573
253	0xbe1fbea8	-0.15600073
254	0x3d3471ba	0.04405377
255	0x3dd026e1	0.101636656

bias f4 [32]
0	0xb99bdbfc	-0.00029727805
1	0xbb2b0215	-0.002609377
2	0xbb946c03	-0.0045294776
3	0xba87dda2	-0.0010365734
4	0xbf32d20d	-0.6985176
5	0xbfca3bea	-1.5799534
6	0xbbdc99f5	-0.0067322203
7	0x3b83d6d4	0.0040234122
8	0x3c92e5cb	0.01793184
9	0xbebc9f2e	-0.36840194
10	0xbba7b028	-0.005117435
11	0xbe0d5f46	-0.13805875
12	0xbb9a4cdd	-0.00470887
13	0xbfc0bceb	-1.5057653
14	0x3d8478b0	0.06468332
15	0xbb3587c3	-0.0027699328
16	0xbb34feeb	-0.0027617763
17	0xbb85cc5a	-0.0040831985
18	0xbe81db56	-0.25362653
19	0x3c196cff	0.009364366
20	0xbb612e6a	-0.003435994
21	0xbfe33450	-1.775034
22	0x3ba3e524	0.005001681
23	0xbed54b53	-0.4165903
24	0x3cb7df68	0.022445396
25	0xbb2c9c53	-0.0026338294
26	0xbecb7afe	-0.39742273
27	0xbba60586	-0.0050665764
28	0xbb41a3d7	-0.002954712
29	0x3e389392	0.18025044
30	0xbb8c8e57	-0.004289429
31	0xbeb7e62f	-0.35917804

weight f4 [1, 2048]
0	0x3d0f046b	0.034916323
1	0xbca7016b	-0.020386418
2	0xbd23cd15	-0.039990503
3	0x3d5994ce	0.053120427
4	0x3dc9c7bd	0.0985255
5	0x3dea26a7	0.114331536
6	0xbd0274c1	-0.031849626
7	0x3ba231aa	0.004949768
8	0xbdbbd0dc	-0.09170696
9	0xbdd16e02	-0.102260605
10	0x3d85e684	0.06538108
11	0x3dfb2a80	0.122639656
12	0x3e55cfaa	0.20879999
13	0x3d3830ef	0.04496854
14	0xbd8f14ae	-0.06986366
15	0xbe38889c	-0.18020862
16	0xbc065967	-0.008200026
17	0xbd419232	-0.047258563
18	0xbd3018c4	-0.04299237
19	0x3aa50ddc	0.0012592631
20	0xbd09c358	-0.03363356
21	0x3c221026	0.009891545
22	0xbdf833ee	-0.1211928
23	0x3d025728	0.0318214
24	0xbc122724	-0.008920465
25	0xbe55313d	-0.20819564
26	0xbdf4261e	-0.11921333
27	0xbec0e3c0	-0.3767376
28	0xbebf77f7	-0.37396213
29	0xbed0bfc0	-0.40771294
30	0xbd3b137f	-0.04567289
31	0xbe1a03ab	-0.15040462
32	0xbd1aee7b	-0.03782509
33	0xbc2a2fd1	-0.010387377
34	0xbe8bd514	-0.27311003
35	0xbedef0f6	-0.43543214
36	0xbebe7b95	-0.3720366
37	0xbec53396	-0.3851592
38	0xbd376668	-0.044775397
39	0xbd79011f	-0.060792085
40	0x3cf6d04b	0.030128619
41	0xbdd4433c	-0.103643864
42	0xbe1a9219	-0.15094794
43	0xbdaada26	-0.0834239
44	0xbd9f9f4e	-0.07794057
45	0xbdc3477a	-0.095351174
46	0xbdb50efe	-0.0884075
47	0xbe3bf1f5	-0.18354018
48	0xbcc189da	-0.023625303
49	0x3db39896	0.08769338
50	0xbe6d6988	-0.23184788
51	0x3e4f7986	0.20261201
52	0x3e94418f	0.28956267
53	0x3cf3ff64	0.029784866
54	0xbc219899	-0.009863042
55	0xbbb3feb5	-0.00549301
56	0x3d868cfc	0.065698594
57	0xbdc8e2f3	-0.09808912
58	0x3dc87a3c	0.09788939
59	0x3e29f230	0.16596293
60	0x3d5dacdd	0.054119933
61	0xbb96711c	-0.0045911204
62	0xbd41b5da	-0.047292568
63	0x3d3beeb9	0.04588196
64	0x3cb567c5	0.022144208
65	0xbe6068b7	-0.21914946
66	0xbcc594ac	-0.024118744
67	0x3ea79e04	0.32737744
68	0x3c480970	0.012209281
69	0x3e74eb66	0.23917922
70	0xbe6bcb86	-0.23026857
71	0xbde2f873	-0.11082544
72	0xbe0112be	-0.12604806
73	0xbe59d2af	-0.21271776
74	0xbcac66d2	-0.021045122
75	0x3e2ca9e0	0.16861677
76	0x3c98cd49	0.018652575
77	0x3db2ccea	0.087304905
78	0xbe7cc758	-0.24685419
79	0xbdef0ceb	-0.11672386
80	0xbd20fee7	-0.039305594
81	0xbe51c481	-0.20485117
82	0xbd07afd3	-0.033126663
83	0x3e284e2b	0.16436069
84	0x3d2260aa	0.039642967
85	0x3da547b6	0.080703184
86	0xbe1746e5	-0.14773138
87	0xbe04610e	-0.12927648
88	0xbe12d279	-0.14338101
89	0xbe4770dc	-0.19476646
90	0xbe535c67	-0.20640717
91	0x3c106562	0.008813234
92	0x39e54ba0	0.0004373463
93	0xbd12b3e7	-0.0358161
94	0xbe464ed7	-0.19366013
95	0xbe863f09	-0.26219967
96	0x3cad843e	0.021181222
97	0xbdd9bbde	-0.10631536
98	0xbe130f75	-0.14361365
99	0xbd44e637	-0.048071112
100	0xbd5d4d41	-0.054028753
101	0xbc44c5db	-0.012010063
102	0xbe3e4a29	-0.18582977
103	0xbdc55e89	-0.09637172
104	0xbdae1ad0	-0.08501208
105	0xbe649688	-0.22323048
106	0xbd5ec187	-0.05438378
107	0x3c6aa9a1	0.014322669
108	0x3d107b38	0.03527376
109	0x3c0d282a	0.008615533
110	0xbe34d77c	-0.17660326
111	0xbdb42926	-0.08796911
112	0xbd3726b9	-0.044714663
113	0xbd94f37a	-0.07273002
114	0x3ca00792	0.01953486
115	0x3d639fc7	0.055572297
116	0x3d8337a4	0.06407097
117	0x3e5fbed7	0.21850143
118	0xbe05b028	-0.1305548
119	0xbcc34c52	-0.023840103
120	0xbd06088f	-0.032723006
121	0xbe0c4531	-0.1369827
122	0xbdbc175f	-0.09184145
123	0x3cb023ee	0.021501508
124	0xbcc38f66	-0.023872089
125	0x3e1927ea	0.14956632
126	0xbe8b3851	-0.27191404
127	0xbe26b4a2	-0.16279843
128	0x3d92a0a8	0.07159549
129	0x3bff63ce	0.00779388
130	0x3db82b6b	0.08992656
131	0x3e235e46	0.15953931
132	0x3ec3995a	0.38202935
133	0xbd9f8403	-0.07788851
134	0x3dd4b0b3	0.10385265
135	0x3e07cb65	0.13261183
136	0x3d18339d	0.037158597
137	0x3da88b34	0.08229676
138	0x3daa3f17	0.08312815
139	0x3e3763d6	0.17909178
140	0x3ed46dc8	0.41490006
141	0xbded7684	-0.11594871
142	0x3e3c9205	0.18415077
143	0x3e0ed9e8	0.13950312
144	0x3d982c4f	0.07430326
145	0x3cf381c3	0.029724961
146	0x3de2501e	0.110504374
147	0x3e30a6e5	0.17251165
148	0x3e8f4eb7	0.27989742
149	0xbd8d2dc5	-0.068934955
150	0x3e3bcb1a	0.18339196
151	0x3dca43fc	0.09876248
152	0x3db617f1	0.08891285
153	0x3dc8a02e	0.09796177
154	0x3e3c0fe6	0.1836544
155	0x3e913431	0.2836013
156	0x3ebaa6f5	0.36455503
157	0x3e02e93a	0.12784281
158	0x3e087a93	0.13328008
159	0xbbaa3fcf	-0.005195595
160	0x3db2b7c1	0.087264545
161	0x3d9d997f	0.07695293
162	0x3df11b6f	0.11772811
163	0x3e758307	0.23975764
164	0x3ecbb28a	0.39784652
165	0xbe0edd1d	-0.13951536
166	0x3dcb8376	0.099371836
167	0x3e00d559	0.12581386
168	0x3e06b129	0.13153519
169	0x3db32010	0.0874635
170	0x3d116141	0.03549314
171	0x3da6b461	0.08139873
172	0x3e9b5068	0.30334783
173	0x3d527dba	0.051389433
174	0x3ca453bb	0.020059457
175	0x3d99ce9b	0.0751011
176	0xbbe4cc07	-0.00698233
177	0x3d0b62a0	0.034029603
178	0xbc917411	-0.01775554
179	0x3e0be71a	0.13662377
180	0x3eca3872	0.3949619
181	0xbdebe940	-0.11519098
182	0x3da3bc62	0.079949155
183	0x3dbd2131	0.092348464
184	0x3e3f29a9	0.18668236
185	0x3dea6cb4	0.11446515
186	0x3d355072	0.04426617
187	0x3e0e1165	0.13873823
188	0x3e3f9bbb	0.1871175
189	0xbe36d710	-0.17855477
190	0x3e55ac5d	0.20866533
191	0x3d9122f4	0.07086745
192	0xbd26b9f1	-0.04070467
193	0xbe3fbc3b	-0.18724148
194	0xbdced047	-0.100983195
195	0x3df608e2	0.12013413
196	0xbde1185b	-0.109909736
197	0xbdd1611f	-0.102236025
198	0xbd88d0ea	-0.06680472
199	0x3d3fd6d9	0.046835754
200	0x3cbdadb9	0.023154126
201	0x3dbb4d64	0.091456205
202	0xbd4534d3	-0.04814608
203	0x3e27db74	0.16392308
204	0x3e9cbb78	0.30611777
205	0x3dcb8993	0.099383496
206	0xbda22a84	-0.079182655
207	0xbcbd035d	-0.023072893
208	0xbd071bb4	-0.032985404
209	0xbda3b475	-0.07993404
210	0xbdc68f87	-0.096953444
211	0xbcee94cf	-0.029123692
212	0x3cec93c4	0.028879054
213	0xbdd8c35e	-0.10584138
214	0xbe5050b0	-0.2034328
215	0xbc8a7379	-0.016900765
216	0xbdc50d32	-0.096216574
217	0xbe0a0af9	-0.13480748
218	0xbe70fb38	-0.23533332
219	0xbe52522b	-0.20539157
220	0xbe7a2d19	-0.24431266
221	0xbe1dfbc2	-0.15428069
222	0xbc1c94c4	-0.009556953
223	0xbe2d5e2e	-0.16930458
224	0xbdbb1945	-0.09135679
225	0xbe0106ee	-0.126003
226	0xbe58c072	-0.21167162
227	0xbe91c371	-0.28469422
228	0xbea064ca	-0.31326896
229	0xbea56c08	-0.32308984
230	0xbe117cea	-0.14207807
231	0x3cbd17e0	0.023082674
232	0xbc917e21	-0.017760338
233	0xbde04aef	-0.109517924
234	0xbe003d00	-0.1252327
235	0xbe012831	-0.12612988
236	0xbc93227b	-0.017960778
237	0x3d69e8cf	0.05710679
238	0xbe0b28d2	-0.1358979
239	0xbe0ac94e	-0.13553354
240	0xbd401ba5	-0.046901364
241	0xbd965485	-0.073403396
242	0xbd0d706c	-0.034531042
243	0x3de16ca7	0.11007052
244	0x3e197548	0.14986145
245	0xbd80a6f4	-0.06281844
246	0xbe6fb1fc	-0.2340774
247	0x3c323cc0	0.010878742
248	0xbd081475	-0.033222634
249	0xbe280c58	-0.16410959
250	0x3d2c403a	0.04205344
251	0x3e4b1069	0.19830479
252	0x3e5f5052	0.21807984
253	0x3e12c7b1	0.14333989
254	0xbc8d138d	-0.017221237
255	0x3d6e7bf1	0.05822367
